.dart_tool/chrome-device/Default/optimization_guide_prediction_model_downloads/09b34120-eb44-4173-a99a-a79a1640a22c/model.tflite (tflite, 409956 bytes, 166 tensors)

context_transformer_0/bottleneck_input/norm/add f4 [32]
0	0xbe49a49a	-0.19691697
1	0xbbd5d104	-0.0065251607
2	0x3d3e6542	0.046483286
3	0x3e38b5dc	0.18038124
4	0xbd6383d3	-0.05554564
5	0x3d2801ae	0.041017227
6	0x3b6a7e13	0.0035780712
7	0xbc0af90f	-0.008482232
8	0xbdcc13e7	-0.099647336
9	0x3db1aa6e	0.08675085
10	0xbca03947	-0.019558562
11	0xbde2b796	-0.110701725
12	0xbb97a664	-0.0046279896
13	0x3e455504	0.19270712
14	0xbbe4aa82	-0.006978334
15	0xbe201428	-0.15632689
16	0xbe0ef74e	-0.13961527
17	0x3ca5ee34	0.020255186
18	0x3d4296de	0.04750716
19	0xbc62bf9d	-0.0138396295
20	0x3db5fdf6	0.0888633
21	0xbc3b8d2a	-0.01144723
22	0xbdcf6ade	-0.10127805
23	0x3da068bd	0.07832477
24	0x3da4aefb	0.080411874
25	0xbb60f538	-0.003432585
26	0xbe3fa2bc	-0.18714422
27	0xbd990d2e	-0.07473217
28	0xbcd8f368	-0.026483253
29	0x3c266f65	0.010158394
30	0xbcbb964f	-0.022898821
31	0xbcdebced	-0.027189696

context_transformer_1/bottleneck_input/norm/add f4 [32]
0	0xbdf8e500	-0.12153053
1	0xbe35f8b5	-0.17770655
2	0x3ca6e5af	0.020373194
3	0x3c32e1d4	0.010918099
4	0x3e80c151	0.2514749
5	0xbbf06cb2	-0.0073371762
6	0x3deca352	0.115545884
7	0xbda779a9	-0.08177502
8	0x3dacc4db	0.08435985
9	0xbd2f8364	-0.042849913
10	0x3cfd3cde	0.030912813
11	0xbbcadaf8	-0.006190654
12	0xbe03d551	-0.12874343
13	0xbd0a432d	-0.03375547
14	0x3dacaa68	0.0843094
15	0xbe1bac72	-0.15202501
16	0xbdd5a5a2	-0.104319826
17	0x3d241d1a	0.040066816
18	0xbd8ff1b8	-0.07028526
19	0x3d5e2d06	0.054242156
20	0xbcc3da57	-0.023907823
21	0x3e9cd108	0.30628228
22	0x3d2fce59	0.042921398
23	0x3dfce3c6	0.12348132
24	0x3d04b024	0.032394543
25	0x3e10ac72	0.14128283
26	0xbbf2b0a3	-0.0074063106
27	0xbde3d5ba	-0.111247495
28	0xbc759d70	-0.014991149
29	0xbded410c	-0.11584672
30	0xbdd8df96	-0.10589521
31	0x3d43a184	0.047761455

mention_transformer_0/bottleneck_input/norm/add f4 [32]
0	0x3d0aa32c	0.03384702
1	0xbe7dfb8c	-0.24802989
2	0x3e43e4a0	0.19130182
3	0xbdc28aa4	-0.094991
4	0xbc9cd0da	-0.019142557
5	0x3d55fa82	0.052240856
6	0xbae41227	-0.0017400429
7	0xbd8175a4	-0.06321266
8	0x3dbc8e53	0.09206834
9	0xbdebae16	-0.11507814
10	0xbddac943	-0.10682919
11	0x3d95255c	0.07282516
12	0x3dc2a22e	0.095035896
13	0x3dadc1e3	0.084842466
14	0xbda846b4	-0.082166106
15	0x3d8de8f8	0.06929201
16	0x3d29e3fa	0.04147718
17	0xbe3facaa	-0.1871821
18	0x3cb22926	0.021748137
19	0x3e8e6f36	0.27819222
20	0x3d91f957	0.07127636
21	0xbd66d02e	-0.05635088
22	0x3d63fbc2	0.055660017
23	0xbd39560b	-0.045248073
24	0x3c8249a4	0.015904255
25	0x3d841d9a	0.064509585
26	0x3cdc7be2	0.02691454
27	0xbe2d6f16	-0.16936907
28	0x3e85e258	0.2614925
29	0xbcfd0b3c	-0.030889146
30	0xbe6412b2	-0.22272757
31	0xbdc82b86	-0.097739264

mention_transformer_1/bottleneck_input/norm/add f4 [32]
0	0xbdaaba35	-0.083362974
1	0xbd10c8bb	-0.03534768
2	0xbe115acc	-0.14194793
3	0x3e9f4408	0.3110659
4	0x3e2053dd	0.15656991
5	0x3da24c96	0.07924764
6	0xbdf686c6	-0.12037425
7	0x3dafc16b	0.085818134
8	0xbd3fb584	-0.046803966
9	0x3e25266a	0.16127935
10	0xbe2c869b	-0.16848223
11	0x3dc64140	0.09680414
12	0xbe4c6363	-0.19959788
13	0xbe7bcd9e	-0.24590155
14	0xbb9f3254	-0.0048582945
15	0xbe1a0d66	-0.15044174
16	0x3d86fa83	0.0659075
17	0xbe04359a	-0.12911072
18	0xbd42f6ca	-0.047598638
19	0x3e5171ab	0.20453517
20	0x3e627beb	0.22117583
21	0x3c8162cc	0.01579418
22	0x3d60ad66	0.054852866
23	0x3e9b77f8	0.30364966
24	0x3ebd7ff4	0.37011683
25	0xbd9c2707	-0.076246314
26	0x3d83c7ef	0.06434619
27	0x3e8f190e	0.27948803
28	0xbd9ecde0	-0.07754111
29	0x3dc1a793	0.0945579
30	0x3e4a455c	0.19753021
31	0x3e661720	0.22469759

context_transformer_0/attention/value/add;context_transformer_0/attention/value/einsum/Einsum;context_transformer_0/attention/value/add/ReadVariableOp/resource f4 [32]
0	0x3d9a1d1a	0.07525082
1	0xbda5c5fc	-0.08094403
2	0xbcc2bd51	-0.023771914
3	0x3d91fa80	0.07127857
4	0x3d32f03d	0.04368614
5	0x3dcd585a	0.10026617
6	0x3d9ef2fc	0.07761189
7	0x3c7fd77f	0.015615343
8	0x3d9a9054	0.0754706
9	0x3d07ec40	0.03318429
10	0xbd8cc410	-0.068733335
11	0x3d37939d	0.04481851
12	0xbda4b95a	-0.080431655
13	0xbda4798b	-0.08030995
14	0x3db35335	0.08756105
15	0x3dbe0a48	0.09279305
16	0xbc5c564e	-0.013448311
17	0x3db0b2aa	0.086278275
18	0xbdb0172f	-0.08598172
19	0xbc5ee9d9	-0.013605558
20	0xbde1deac	-0.110287994
21	0x3b84ac25	0.0040488415
22	0x3d843bf4	0.06456748
23	0xbbcdf95a	-0.0062858285
24	0x3d533a7d	0.05156945
25	0xbd28040f	-0.041019496
26	0xbc280682	-0.010255458
27	0xbc47886b	-0.012178521
28	0xbdbbb12d	-0.09164653
29	0x3dbae7ca	0.091262415
30	0x3cba5408	0.022745147
31	0xbd10035a	-0.035159446

context_transformer_0/bottleneck_input/norm/mul f4 [32, 32]
0	0x3d3fde59	0.046842907
1	0xbcc5dc0f	-0.024152784
2	0x3bfe8b04	0.007768037
3	0x3e8d65b8	0.27616668
4	0xbe6443fa	-0.22291556
5	0x3dddb11b	0.10824796
6	0xbe3b491b	-0.18289606
7	0xbf0a1a70	-0.5394659
8	0xbd8dbe16	-0.06921022
9	0x3ded5253	0.11587968
10	0xbe02c6ee	-0.12771198
11	0xbe4ac538	-0.19801795
12	0xbebf9a10	-0.37422228
13	0x3ddf1a6e	0.10893713
14	0xbdf21b94	-0.11821666
15	0x3be26055	0.0069084563
16	0xbd2d694e	-0.042336755
17	0x3deca9aa	0.11555798
18	0xbe048332	-0.12940672
19	0xbeb22322	-0.3479243
20	0xbe2b946e	-0.1675584
21	0x3e016118	0.12634695
22	0x3e107e35	0.14110644
23	0xbe40336d	-0.18769617
24	0x3e588e18	0.21147954
25	0xbe552cac	-0.20817822
26	0x3d4ad088	0.049515277
27	0x3e7288aa	0.23684946
28	0xbe2603e3	-0.1621242
29	0x3e2929da	0.16519871
30	0x3dc64d93	0.09682765
31	0xbdcd986a	-0.10038836
32	0xbe0b044d	-0.1357586
33	0xbda8fc1b	-0.0825121
34	0x3e01f7e5	0.1269222
35	0xbe35c436	-0.1775063
36	0x3df1660a	0.117870405
37	0xbde6fdc1	-0.112788685
38	0x3e3d1f57	0.18468986
39	0xbea983f7	-0.33108494
40	0x3e1dac1f	0.1539769
41	0xbe421028	-0.18951476
42	0xbce8cee7	-0.028418971
43	0xbdbdee30	-0.09273946
44	0xbe8e694a	-0.27814704
45	0xbd8aaf4a	-0.06771715
46	0xbe0a8397	-0.1352676
47	0xbc6d3b8b	-0.014479528
48	0x3b2e8876	0.002663163
49	0xbdab69fa	-0.08369823
50	0xbe8f7628	-0.28019834
51	0xbe7349d6	-0.23758635
52	0xbe662acf	-0.22477268
53	0x3e3c0db6	0.18364605
54	0xbee93271	-0.45546296
55	0x3e620401	0.2207184
56	0x3e265f9f	0.16247414
57	0xbea87525	-0.32901874
58	0xbe94ae5f	-0.29039285
59	0xbd9a4f75	-0.075346865
60	0x3bc1dd6e	0.005916289
61	0x3db0f63d	0.08640716
62	0x3db43d48	0.08800751
63	0x3cf79249	0.030221121
64	0x3c122182	0.008919122
65	0x3de14718	0.10999888
66	0x3e7c3e81	0.24633218
67	0x3daf70f7	0.08566468
68	0xbd83f0f6	-0.06442444
69	0xbee015d0	-0.43766642
70	0xbe7adda0	-0.24498606
71	0x3e5f0626	0.21779689
72	0x3d3b6b8b	0.045756858
73	0xbe5b2591	-0.21401049
74	0xbe8cead8	-0.27522922
75	0x3d7c6e9a	0.061628915
76	0xbcd80745	-0.026370654
77	0x3b59e4ad	0.0033247874
78	0xbec1b125	-0.37830463
79	0xbdf18b76	-0.11794178
80	0x3ed9702d	0.42468396
81	0x3ef8be7f	0.48582837
82	0x3e4c8643	0.19973092
83	0x3eb30775	0.34966627
84	0x3e929aef	0.2863383
85	0xbdc0637f	-0.093939774
86	0x3d3ba46a	0.045811094
87	0xbe2ea6a8	-0.17055762
88	0xbe3016ed	-0.17196245
89	0x3e1f83f8	0.15577686
90	0xbe16ff5b	-0.14745848
91	0xbe53ce94	-0.20684272
92	0x3ee10112	0.4394613
93	0x3e5e0220	0.21680498
94	0x3e6695c9	0.22518076
95	0x3d9e90fc	0.07742497
96	0xbedf4873	-0.43609962
97	0xbdb6ce04	-0.08926013
98	0x3e8e5b05	0.27803817
99	0xbe133d2f	-0.14378808
100	0x3e078fb4	0.13238412
101	0xbea7e7c1	-0.32794002
102	0xbc6c15fd	-0.014409539
103	0x3f2292b4	0.635051
104	0x3ddfd74c	0.109297365
105	0xbb9a639f	-0.004711583
106	0x3ecdd82e	0.40203995
107	0x3e9f100e	0.31066936
108	0x3e9c7e07	0.305649
109	0xbcb710fb	-0.022346964
110	0x3ea9cddf	0.3316488
111	0x3da4b063	0.080414556
112	0xbd3e66d5	-0.046484787
113	0xbe185208	-0.14875042
114	0x3d58c5ad	0.052922893
115	0x3f14fb4f	0.58195966
116	0xbdc2bfb1	-0.095092185
117	0x3df34103	0.118776344
118	0x3e818427	0.25296137
119	0x3eb606db	0.35552105
120	0x3ee5d680	0.44890213
121	0xbe661687	-0.22469531
122	0xbd8bdab9	-0.068288274
123	0xbebe4f30	-0.3716979
124	0xbd6da915	-0.058022577
125	0xbeafa030	-0.343019
126	0xbe38da47	-0.18052016
127	0x3c85a623	0.016314572
128	0xbc2558cf	-0.010091974
129	0xbdb9bc56	-0.09069125
130	0xbd512d97	-0.05106887
131	0x3e122696	0.14272532
132	0x3e2afa3a	0.16697016
133	0xbda6bc2b	-0.08141359
134	0xba72f552	-0.0009268123
135	0x3df721fd	0.120670296
136	0x3e45ea64	0.19327694
137	0x3e278aa6	0.16361484
138	0xbe4184a2	-0.18898252
139	0x3b49306e	0.0030699032
140	0xbd30792d	-0.043084312
141	0x3bd3bc1a	0.0064616324
142	0x3e519358	0.20466363
143	0xbd950592	-0.07276453
144	0x3cca3e62	0.02468795
145	0x3e3cdc09	0.18443312
146	0x3d82116f	0.063509814
147	0xbcdcbc51	-0.026945265
148	0xbe5c50d2	-0.21515206
149	0xbe919fb6	-0.28442162
150	0x3bfb553a	0.007670072
151	0xbd118649	-0.035528455
152	0x3e77e633	0.24208908
153	0xbe8772f5	-0.26454893
154	0xbde68f4f	-0.11257803
155	0x3d9b5db5	0.075862326
156	0x3e89ebc2	0.2693768
157	0xbd677a5c	-0.056513175
158	0x3c8ca7eb	0.017169913
159	0x3e1b1294	0.15143806
160	0xbc4f37e2	-0.012647601
161	0x3e053ed0	0.13012242
162	0xbe5fe1ff	-0.21863554
163	0x3daadb76	0.0834264
164	0x3da951f2	0.08267583
165	0x3e0d8da7	0.13823567
166	0xbde5e6fa	-0.11225696
167	0xbe0f6294	-0.14002448
168	0x3e0f9512	0.1402171
169	0x3e832bed	0.2561945
170	0x3de17d48	0.110102236
171	0xbe7d69ae	-0.24747345
172	0x3e2be13e	0.16785142
173	0xbe3be81b	-0.1835026
174	0xbdbf749e	-0.09348415
175	0x3cb27d01	0.021788122
176	0xbd257cab	-0.040402096
177	0xbe7fc52e	-0.24977562
178	0x3d3654ef	0.044514593
179	0x3e02a05c	0.12756485
180	0x3e51416e	0.20435116
181	0x3c8af62f	0.016963093
182	0x3d6df4ae	0.058094673
183	0x3da19a16	0.07890718
184	0xbe831c08	-0.25607324
185	0x3eb57736	0.35442513
186	0x3dfe0849	0.12403924
187	0xbdad9dff	-0.08477401
188	0x3e7cd1b1	0.24689366
189	0xbda4c138	-0.08044666
190	0xbe246d47	-0.16057311
191	0x3d3a9d89	0.045560393
192	0xbe11c898	-0.14236677
193	0xbe6a876f	-0.22903226
194	0x3da4551b	0.08024045
195	0xbc8d7dc4	-0.017271884
196	0x3d055ff6	0.03256222
197	0xbebac22e	-0.36476272
198	0x3e451895	0.19247659
199	0x3d09e61d	0.03366672
200	0xbe3ec2de	-0.18629023
201	0x3ece6529	0.40311554
202	0xbd48759c	-0.048940286
203	0xbe34bc3d	-0.17649932
204	0x3d549b90	0.05190617
205	0x3d5bba56	0.0536445
206	0xbc70502c	-0.014667552
207	0xbe767fd0	-0.24072194
208	0xbe271926	-0.16318187
209	0xbe896cf2	-0.2684093
210	0xbe10320f	-0.14081596
211	0xbcb3b771	-0.021938058
212	0xbe1ad516	-0.15120348
213	0xbcad05a2	-0.02112085
214	0x3e66ef34	0.22552186
215	0x3d9637a1	0.07334829
216	0xbeafb324	-0.3431636
217	0x3e310bfa	0.17289725
218	0xbdc9f134	-0.09860459
219	0x3e64c243	0.2233973
220	0xbbf8e4c0	-0.0075956285
221	0x3d00d633	0.031454276
222	0xbde4bdcc	-0.111690134
223	0x3e392b8d	0.1808302
224	0xbe63a901	-0.22232439
225	0xbe1f6a67	-0.15567933
226	0xbe7277da	-0.23678532
227	0x3d6f567b	0.058432084
228	0x3d42543a	0.047443606
229	0xbd5f4579	-0.054509614
230	0x3e339d85	0.17540558
231	0xbe9cca8d	-0.30623284
232	0xbdc0df19	-0.094175525
233	0xbdf0fa20	-0.117664576
234	0xbe65384b	-0.22384755
235	0x3bd73474	0.006567532
236	0xbda5d2a1	-0.08096815
237	0x3e380254	0.17969638
238	0xbcc14889	-0.023594158
239	0x3d81998a	0.063281134
240	0xbdf90274	-0.12158671
241	0xbe519d32	-0.20470122
242	0xbd21ff09	-0.03954986
243	0xbd8360f5	-0.064149775
244	0xbddb9fca	-0.10723837
245	0xbdd27b88	-0.10277468
246	0xbd5c889d	-0.053841222
247	0x3e0c18a6	0.13681278
248	0xbe4038ad	-0.1877162
249	0xbdc938c8	-0.09825283
250	0xbe79ca1b	-0.24393503
251	0x3ec6a2e1	0.38796142
252	0x3dc47fa5	0.09594659
253	0x3df42c6a	0.11922534
254	0x3e373606	0.17891702
255	0xbc11b9f9	-0.008894437

context_transformer_0/kq_shared_bottleneck/norm/mul;context_transformer_0/kq_shared_bottleneck/norm/add;context_transformer_0/attention/key/einsum/Einsum;context_transformer_0/attention/key/add;context_transformer_0/attention/value/einsum/Einsum;context_transformer_0/attention/key/add/ReadVariableOp/resource f4 [32]
0	0x3e98f374	0.2987324
1	0x3e8a76be	0.27043718
2	0xbe9db1b2	-0.30799633
3	0x3e9ea38a	0.30984145
4	0xbdfffdd2	-0.12499584
5	0xbe9d9897	-0.3078048
6	0xbeab2f6c	-0.33434618
7	0x3e677889	0.22604574
8	0xbe12120f	-0.14264701
9	0xbc888c6c	-0.01666852
10	0xbe73e4cb	-0.23817746
11	0xbb6ee670	-0.003645327
12	0xbe218ff0	-0.15777564
13	0x3a15424e	0.0005693779
14	0xbcb5f86f	-0.022213189
15	0xbd4fc128	-0.050721318
16	0x3e3a184c	0.18173331
17	0xbe071936	-0.13193211
18	0x3ce64105	0.028107176
19	0xbe1437dd	-0.14474435
20	0xbcd6a2f7	-0.026200755
21	0xba82c9cf	-0.0009978357
22	0xbdfd1e16	-0.12359254
23	0x3e8e08cf	0.27741095
24	0xbe97927d	-0.2960395
25	0x3dda1add	0.10649655
26	0x3d8cdbe8	0.06877881
27	0x3e10df83	0.14147763
28	0x3dfbac67	0.122887425
29	0x3ef0a168	0.46998143
30	0x3d74f828	0.059806973
31	0xbe8770e8	-0.26453328

context_transformer_0/kq_shared_bottleneck/norm/mul;context_transformer_0/kq_shared_bottleneck/norm/add;context_transformer_0/attention/key/einsum/Einsum;context_transformer_0/attention/key/add;context_transformer_0/attention/value/einsum/Einsum;context_transformer_0/attention/key/add/ReadVariableOp/resource1 f4 [32, 32]
0	0xbcd9d861	-0.026592435
1	0x3e70eff8	0.23529041
2	0x3de903ba	0.11377664
3	0x3e5c16b8	0.21493042
4	0x3de7cb0d	0.11318026
5	0xbe367ba0	-0.17820597
6	0x3da75633	0.08170738
7	0xbd521104	-0.05128576
8	0xbdbe7c1f	-0.09301018
9	0x3e4c0e84	0.19927412
10	0x3ba24104	0.004951598
11	0xbe519501	-0.20466997
12	0x3e447d25	0.19188364
13	0xbe149b6d	-0.14512415
14	0xbe172638	-0.14760673
15	0x3e3250bd	0.17413612
16	0xbd084428	-0.033268124
17	0xbe5ccc66	-0.21562347
18	0x3d256ed5	0.0403889
19	0xbded9997	-0.116015606
20	0x3dc38250	0.095463395
21	0x3e0761c2	0.13220885
22	0xbdf839de	-0.12120412
23	0xbc89efab	-0.016837915
24	0xbd04ba3a	-0.032404162
25	0x3e05249b	0.13002245
26	0xbdbd9702	-0.09257318
27	0xbdfeee0b	-0.12447747
28	0x3e84fc4f	0.25973746
29	0xbe2417e2	-0.16024736
30	0xbe328649	-0.17434038
31	0xbe4872c7	-0.19575034
32	0xbdcff2a0	-0.10153699
33	0x3e48bfff	0.1960449
34	0x3e0261d2	0.12732628
35	0x3e587b17	0.21140705
36	0x3d8022ee	0.06256662
37	0xbe1a04c5	-0.15040882
38	0x3dbd166f	0.092327945
39	0xbd206cee	-0.039166383
40	0xbda7ed2d	-0.081995346
41	0x3e1c694c	0.15274543
42	0xbd52b18e	-0.05143886
43	0xbe6d19be	-0.23154351
44	0x3e192597	0.14955746
45	0xbe11b75f	-0.14230107
46	0xbda7244f	-0.08161222
47	0x3e017e99	0.1264595
48	0xbdb91d8d	-0.090388395
49	0xbe594962	-0.212194
50	0xb71d362e	-9.370544e-06
51	0xbda079c2	-0.078357235
52	0x3d82f4f3	0.063943766
53	0x3e3e670c	0.18593997
54	0xbde6bc5a	-0.11266394
55	0x3d169324	0.036761418
56	0xbc796760	-0.0152224
57	0x3de59f79	0.112120576
58	0xbdd46e6f	-0.10372626
59	0xbda68967	-0.08131676
60	0x3e6c6a3c	0.230874
61	0xbdc82f2f	-0.097746246
62	0xbe003a1b	-0.12522165
63	0xbe0e0b8b	-0.13871591
64	0x3da9b7b0	0.08286989
65	0xbe44f0e4	-0.19232517
66	0xbdc56f25	-0.0964034
67	0xbe62578e	-0.22103712
68	0xbddf4d21	-0.10903383
69	0x3e1993c4	0.14997774
70	0xbe009fe2	-0.1256099
71	0x3d4e15b2	0.05031366
72	0x3dddf0de	0.108369574
73	0xbe3e6d7d	-0.18596454
74	0x3c8a33da	0.016870428
75	0x3e405202	0.18781283
76	0xbe184925	-0.14871652
77	0x3e261bf1	0.16221596
78	0x3dc9bfa4	0.09851006
79	0xbe1d80ab	-0.15381114
80	0x3d4160e4	0.047211543
81	0x3e740395	0.23829491
82	0xbd365e21	-0.044523362
83	0x3da3213a	0.07965322
84	0xbdc9582b	-0.0983127
85	0xbe159db7	-0.14610945
86	0x3e0d05da	0.13771763
87	0xbc2895be	-0.010289608
88	0x3c1d47f3	0.009599674
89	0xbe00bf2d	-0.12572928
90	0x3e03edc8	0.12883675
91	0x3df94953	0.121721886
92	0xbe943555	-0.2894694
93	0x3e1111a6	0.14166889
94	0x3e44dec4	0.19225603
95	0x3e241a88	0.16025746
96	0xbd21a328	-0.03946224
97	0x3e6be88c	0.23037928
98	0x3e16f4f2	0.14741877
99	0x3e5aae31	0.21355511
100	0x3dd0e421	0.10199762
101	0xbe4418f4	-0.19150144
102	0x3de6bb40	0.11266184
103	0xbcd26615	-0.025683442
104	0xbdc180cb	-0.094483934
105	0x3e4a074e	0.19729349
106	0x3bd4f1d7	0.006498556
107	0xbe723814	-0.23654205
108	0x3e3d42e2	0.18482545
109	0xbe143bd5	-0.14475949
110	0xbdafd5a2	-0.08585669
111	0x3e23bab2	0.15989187
112	0xbd8095bf	-0.06278562
113	0xbe63b3c0	-0.22236538
114	0x3c1fa68c	0.009744298
115	0xbde88b0d	-0.11354647
116	0x3dd6006c	0.10449299
117	0x3e2b8c54	0.1675275
118	0xbe05e249	-0.13074602
119	0x3d581b14	0.0527602
120	0xbd191381	-0.037372116
121	0x3e00e79a	0.12588349
122	0xbdd659c9	-0.10466344
123	0xbe062ca7	-0.13102971
124	0x3e81e333	0.25368652
125	0xbe1a7718	-0.15084493
126	0xbe274267	-0.16333924
127	0xbe3a7478	-0.18208492
128	0x3e893dad	0.26804867
129	0xbe8c8927	-0.2744839
130	0xbe4b4c0b	-0.19853227
131	0xbdf4792c	-0.11937174
132	0xbdb45117	-0.08804529
133	0x3e290656	0.16506323
134	0xbce8204b	-0.028335711
135	0x3cb74c07	0.02237512
136	0xbc97f9c2	-0.018551711
137	0xbdbd5288	-0.09244257
138	0x3de88524	0.113535196
139	0x3e8691d6	0.2628314
140	0xbda2a339	-0.079412885
141	0xbcdd03fe	-0.026979443
142	0x3db53b1e	0.08849166
143	0xbd632085	-0.055450935
144	0x3e1759b1	0.14780308
145	0x3e836d99	0.25669554
146	0xbd39a206	-0.045320533
147	0x3cafea11	0.021473916
148	0xbccfc78d	-0.025363708
149	0xbe470c87	-0.19438373
150	0x3d31ffbb	0.043456774
151	0xbd6eadcf	-0.058271226
152	0xbb955052	-0.004556694
153	0xbd6d1ff4	-0.0578918
154	0x3de72266	0.11285858
155	0x3d8adbb5	0.06780187
156	0xbe23e7e4	-0.16006428
157	0x3d8987cb	0.067153536
158	0x3da1b0a0	0.07895017
159	0xbcb4e61f	-0.022082387
160	0xbd3d033b	-0.04614566
161	0xbdb2b975	-0.08726779
162	0xbe9cef10	-0.3065114
163	0xbde8b8db	-0.113633834
164	0x3d986e2b	0.07442888
165	0xbcb7f654	-0.022456326
166	0x3daefef3	0.085447215
167	0xbd8237e5	-0.06358317
168	0x3dc0e127	0.094179444
169	0xbdd45797	-0.10368269
170	0x3df1a624	0.11799267
171	0x3ea9de15	0.33177248
172	0xbd579a15	-0.05263718
173	0x3e79e7f9	0.24404897
174	0xbda4f1db	-0.08053943
175	0xbda2e859	-0.07954473
176	0x3ecd1c74	0.4006077
177	0x3ecca6e0	0.39971066
178	0x3e7fc54f	0.24977611
179	0x3c40a88d	0.011758936
180	0x3da90e5f	0.08254694
181	0xbe8b4875	-0.27203718
182	0x3cc019b2	0.023449752
183	0xbe95a878	-0.29230094
184	0x3e8b3b64	0.2719375
185	0x3d1cdb40	0.03829503
186	0xbd824d09	-0.063623495
187	0xbb6d5541	-0.0036214145
188	0xbe85fb32	-0.2616821
189	0xbd5c562b	-0.053793114
190	0x3d6b0d0c	0.05738549
191	0x3e81716a	0.2528184
192	0xbc9a84aa	-0.018862087
193	0xbe5f2bdb	-0.21794073
194	0xbe307e69	-0.17235722
195	0xbe487746	-0.19576749
196	0xbda0754d	-0.07834873
197	0x3dfc2916	0.12312524
198	0xbd52f191	-0.051499907
199	0x3d1cb60c	0.03825955
200	0x3dc30f38	0.09524387
201	0xbe34e64f	-0.17665981
202	0x3d0143fc	0.031558976
203	0x3e560b49	0.20902742
204	0xbe188df8	-0.14897907
205	0x3e631534	0.22176057
206	0x3dc11359	0.094275184
207	0xbe296180	-0.165411
208	0x3df37d37	0.11889117
209	0x3e6e7d6b	0.2329003
210	0x3d0eea95	0.034891684
211	0x3db0437e	0.08606623
212	0xbdbaf101	-0.09127999
213	0xbe0a951b	-0.13533442
214	0x3e08fc4b	0.13377492
215	0xbd035164	-0.032060042
216	0x3d8153e7	0.06314831
217	0xbd9de7a5	-0.07710198
218	0x3da5c1f5	0.08093635
219	0x3da6dbd2	0.08147396
220	0xbeab53ff	-0.3346252
221	0x3de2746a	0.110573605
222	0x3e4b5dbf	0.1985998
223	0x3e6984aa	0.22804514
224	0xbe576d7d	-0.2103786
225	0x3e8aeaa0	0.2713213
226	0x3e0265b5	0.1273411
227	0x3e26201f	0.1622319
228	0x3dc58964	0.09645346
229	0xbe163f89	-0.14672674
230	0x3d83eaf4	0.06441298
231	0xbcd44dcf	-0.025916008
232	0xbdaa4461	-0.083138235
233	0x3e26b57c	0.16280168
234	0xbce62d89	-0.028097885
235	0xbe793fdc	-0.24340767
236	0x3e132e56	0.14373145
237	0xbd8e2054	-0.0693976
238	0xbe0228c4	-0.12710863
239	0x3e048ae6	0.1294361
240	0xbd466e83	-0.048445236
241	0xbe8515af	-0.25993106
242	0x3d6f4ac6	0.05842092
243	0xbcd7c6b7	-0.026339872
244	0x3db4ff6d	0.08837781
245	0x3e1c19ba	0.15244189
246	0xbda25547	-0.079264216
247	0xbd5a796e	-0.05333846
248	0xbc0b5e32	-0.008506345
249	0x3dd9c172	0.106326
250	0xbe094f92	-0.1340926
251	0xbdba61b2	-0.09100665
252	0x3e427d48	0.18993104
253	0xbddaf3a4	-0.10691002
254	0xbe0c0bb0	-0.13676333
255	0xbe03ca0e	-0.12870046

context_transformer_0/kq_shared_bottleneck/norm/mul;context_transformer_0/kq_shared_bottleneck/norm/add;context_transformer_0/attention/query/einsum/Einsum;context_transformer_0/attention/query/add;context_transformer_0/attention/value/einsum/Einsum;context_transformer_0/attention/query/add/ReadVariableOp/resource;context_transformer_0/attention/Mul;context_transformer_0/attention/Mul/y f4 [32]
0	0x3de6b7f0	0.11265552
1	0x3da3acf9	0.07991976
2	0xbddbd415	-0.10733811
3	0x3de2f130	0.11081159
4	0x3cedbe22	0.029021326
5	0xbdf60853	-0.120133065
6	0xbe0b6c03	-0.13615422
7	0x3d39f874	0.04540296
8	0xbe226ec6	-0.15862569
9	0x3e0c9b1a	0.13731042
10	0xbe16a8ef	-0.1471288
11	0xbe156fa0	-0.14593363
12	0xbe126a39	-0.14298333
13	0xbe09027f	-0.13379858
14	0xbdf05b25	-0.117361344
15	0xbdc82347	-0.097723536
16	0x3c9ba85a	0.019001175
17	0x3c18e336	0.009331515
18	0xbda85a5c	-0.0822036
19	0x3b8799c1	0.004138202
20	0xbde82e0f	-0.1133691
21	0x3db78dfe	0.0896263
22	0xbe19853f	-0.14992236
23	0x3d99c329	0.07507927
24	0xbe3d963c	-0.18514341
25	0x3e56a9d1	0.20963217
26	0xbadabd8b	-0.0016688568
27	0x3d84abd5	0.06478087
28	0x3d718bb0	0.058971107
29	0x3e4596c7	0.19295798
30	0xbdb5a543	-0.08869412
31	0xbe22c0da	-0.1589388

context_transformer_0/kq_shared_bottleneck/norm/mul;context_transformer_0/kq_shared_bottleneck/norm/add;context_transformer_0/attention/query/einsum/Einsum;context_transformer_0/attention/query/add;context_transformer_0/attention/value/einsum/Einsum;context_transformer_0/attention/query/add/ReadVariableOp/resource;context_transformer_0/attention/Mul;context_transformer_0/attention/Mul/y1 f4 [32, 32]
0	0x3dc21b5b	0.09477874
1	0xbdeebb36	-0.116568014
2	0xbc60fcfb	-0.01373219
3	0xbd32a08f	-0.04361015
4	0xbd5d0bd6	-0.053966366
5	0x3d3939d9	0.045221183
6	0xbce8c25e	-0.028412994
7	0x3c3ca741	0.011514486
8	0xbc1ff37f	-0.009762644
9	0xbd51603b	-0.051117163
10	0x3c7d0ef3	0.015445459
11	0xbc6683a0	-0.014069468
12	0xbd433614	-0.047658995
13	0xbd1dc38d	-0.03851657
14	0x3d4cec90	0.05003029
15	0xbca61667	-0.020274354
16	0x3c10342e	0.008801503
17	0xbbe2985a	-0.0069151344
18	0xbd84953c	-0.06473777
19	0x3d179def	0.03701585
20	0xbce94402	-0.028474811
21	0xbc2fdcbc	-0.0107337795
22	0xbcd3a7f9	-0.025836932
23	0xbc5ffd7f	-0.013671278
24	0x3c2c2595	0.010507007
25	0x3a4b18a0	0.0007747505
26	0x3d0d8f40	0.034560442
27	0x3d38f646	0.04515674
28	0x3c815e48	0.015792027
29	0x3d82f68f	0.063946836
30	0x3d2173dc	0.039417133
31	0xbd59c0e9	-0.05316249
32	0x3dd35650	0.10319197
33	0xbddb2f7d	-0.10702417
34	0xbc93e5ef	-0.018053977
35	0xbccba914	-0.024860896
36	0xbd20d4d2	-0.03926546
37	0x3d41038c	0.047122523
38	0xbccb9cd7	-0.02485506
39	0xb900ff6d	-0.00012302185
40	0xbc1824af	-0.00928609
41	0xbd16f270	-0.0368523
42	0x3c1e7fce	0.009674026
43	0x3a527854	0.00080287945
44	0xbcc59177	-0.024117215
45	0xbd1f41b3	-0.038881015
46	0x3d19a767	0.037513163
47	0xbc9e17a4	-0.019298382
48	0x3cdbcdfa	0.026831616
49	0x3c9e1fbc	0.019302242
50	0xbd7965b5	-0.06088801
51	0x3d11f213	0.03563125
52	0xbc8c6fc9	-0.017143147
53	0xbcdd1989	-0.026989715
54	0xbc1f5c6b	-0.009726624
55	0xbc82d543	-0.015970832
56	0x3c88175c	0.016612701
57	0xb9bb7d9f	-0.00035761014
58	0x3ca13391	0.01967791
59	0x3ccaf9ba	0.024777282
60	0x3c92df2f	0.017928688
61	0x3d682147	0.05667236
62	0x3cccbe61	0.024993123
63	0xbcc6a34b	-0.024247786
64	0xbdd7afc6	-0.10531573
65	0x3debaa3e	0.115070805
66	0x3c46f79d	0.012143997
67	0x3d180102	0.037110336
68	0x3d62c4a7	0.055363324
69	0xbd4cf9cb	-0.05004291
70	0x3ce45b2a	0.027875502
71	0xbc36a658	-0.011148058
72	0x3be06e5f	0.0068490948
73	0x3d50a92d	0.05094259
74	0xbccdd5eb	-0.025126418
75	0x3c03ac3e	0.008036671
76	0x3d45c84c	0.04828672
77	0x3d27ea58	0.040994972
78	0xbd296b2d	-0.041361976
79	0x3ca25ba6	0.019819092
80	0xbbb171e7	-0.0054151895
81	0x3bcec582	0.006310166
82	0x3d79344d	0.060840894
83	0xbd20215e	-0.03909432
84	0x3cf7b68d	0.030238414
85	0x3c8905a3	0.01672632
86	0x3c20a36a	0.009804586
87	0x3adfc444	0.0017072042
88	0x3c691245	0.014225547
89	0xbc0f0921	-0.008730204
90	0xbcb0de7f	-0.02159047
91	0xbd1fb5c6	-0.038991712
92	0xbd0a3f5b	-0.033751827
93	0xbd7500fd	-0.059815396
94	0xbd3e34e5	-0.046437163
95	0x3d1c6af3	0.038187932
96	0x3debeaac	0.115193695
97	0xbdfb0b50	-0.12258017
98	0xbcc6fec4	-0.024291404
99	0xbd134296	-0.035952173
100	0xbd766a5c	-0.060160026
101	0x3d6b0748	0.05737999
102	0xbc32e490	-0.010918751
103	0x3c91fbd0	0.017820269
104	0xbcca08ab	-0.024662336
105	0xbd428fda	-0.04750047
106	0x3be3e570	0.0069548413
107	0xbc7abc86	-0.015303737
108	0xbd31b7bd	-0.043388117
109	0xbd4d9b03	-0.05019666
110	0x3d2b34e5	0.04179849
111	0xbc998d92	-0.018744264
112	0x3cab7284	0.020928629
113	0x3b4b7f59	0.0031051247
114	0xbd64b463	-0.055836093
115	0x3d350627	0.04419532
116	0xbc93285a	-0.017963577
117	0xbd0badfa	-0.034101464
118	0xbcce8bc5	-0.025213132
119	0xbc7b3c16	-0.01533415
120	0x3c0088f6	0.007845154
121	0xbb258474	-0.002525595
122	0x3ca74a2b	0.020421108
123	0x3d1938bb	0.037407618
124	0x3ca4f77d	0.020137543
125	0x3d7751ee	0.06038087
126	0x3d24d6b7	0.04024383
127	0xbd5c545b	-0.053791385
128	0xbddee487	-0.10883432
129	0x3dbe357e	0.092875466
130	0x3d501cdf	0.050808784
131	0x3cd3ff8b	0.025878688
132	0x3d083a98	0.033259004
133	0xbd19a6a2	-0.03751243
134	0x3cdf2e61	0.027243795
135	0xbd0135bc	-0.031545386
136	0xbcf33dee	-0.029692616
137	0x3d3957e6	0.045249842
138	0xbabaa94a	-0.0014241126
139	0xbd2de6c0	-0.04245639
140	0x3d1fa9d4	0.03898032
141	0x3c08aa3e	0.00834137
142	0xbcca3dee	-0.024687734
143	0x3d138bc2	0.036021955
144	0xbd4f0354	-0.050540283
145	0xbd7ad682	-0.061239727
146	0x3d171913	0.036889147
147	0xbca43781	-0.020045998
148	0x3d1f2066	0.038849257
149	0x3d5090f8	0.050919503
150	0xbcf9b55c	-0.030481987
151	0x3d9028b5	0.07039014
152	0xbccc1602	-0.024912838
153	0x3d1e03ed	0.038577963
154	0xbcef0869	-0.029178815
155	0xbc7bfd78	-0.015380256
156	0x3d1c1062	0.03810156
157	0xbd4b3563	-0.04961146
158	0xbd4036ce	-0.046927266
159	0x3b44d8ff	0.0030036566
160	0xbe4648de	-0.19363734
161	0x3dd6f62f	0.104961745
162	0x3cd3ca2e	0.025853243
163	0xbcd7bfb1	-0.026336523
164	0xbce9f5b1	-0.028559538
165	0xbc139c1f	-0.00900939
166	0xbc108a85	-0.008822088
167	0x3bda005f	0.0066528763
168	0x3d926def	0.071498744
169	0xbd37f371	-0.0449099
170	0xbc2aab39	-0.010416799
171	0xbd4835c5	-0.048879404
172	0xbccec0ef	-0.025238482
173	0x3deab90e	0.11461078
174	0x3c153da8	0.009108938
175	0xbd5a68a2	-0.053322442
176	0xbda13e93	-0.07873263
177	0xbd657c0e	-0.05602651
178	0xbce9c394	-0.028535642
179	0x3cce72bc	0.025201194
180	0x3a818d33	0.0009884
181	0x3d45469f	0.048163053
182	0x3d5188ff	0.05115604
183	0x3e8b9d45	0.27268425
184	0xbd771bfe	-0.06032943
185	0xbcefa73e	-0.029254552
186	0x3b7f2df6	0.0038937307
187	0x3cde391f	0.027126847
188	0xbd904d3a	-0.0704598
189	0x3d179f53	0.037017178
190	0x3d37fff2	0.044921823
191	0x3db23446	0.087013766
192	0xbdde0b6d	-0.10842023
193	0x3e066392	0.1312392
194	0x3c981c99	0.018568324
195	0x3cacbe29	0.02108677
196	0x3d4370f5	0.047715146
197	0xbd09b3c3	-0.0336187
198	0x3c2471c4	0.010036889
199	0xbbebddd6	-0.0071980758
200	0x3cefa65a	0.029254127
201	0x3d455834	0.04817982
202	0xbca5792b	-0.020199379
203	0xbb8af96f	-0.0042411606
204	0x3cb9ae69	0.022666173
205	0x3d6508d4	0.055916622
206	0xbd080682	-0.03320933
207	0xbaaf3446	-0.0013367019
208	0xbc7c89d5	-0.015413721
209	0x39dd8476	0.00042251096
210	0x3d4f8d84	0.05067207
211	0xbd03cdee	-0.03217881
212	0x3c93feed	0.018065894
213	0x3cba9a16	0.022778552
214	0x3d128ae1	0.035776976
215	0x3d3eea39	0.04661009
216	0xbc21fdc2	-0.009887161
217	0xbc4e6e74	-0.012599576
218	0xbcc2211d	-0.02369743
219	0xbcfe947a	-0.031076659
220	0xbd36098b	-0.044442695
221	0xbd260731	-0.040534202
222	0xbc9bb07e	-0.019005056
223	0x3d6a2b0e	0.057169966
224	0x3df68cde	0.12038587
225	0xbdbe6260	-0.09296107
226	0xbc923e33	-0.017851925
227	0xbd18a262	-0.037264235
228	0xbd5f5821	-0.054527406
229	0x3d2f39b9	0.042779658
230	0xbd2a234a	-0.04153756
231	0x3cd3d723	0.025859421
232	0x3c82e686	0.015979063
233	0xbd3ba1f6	-0.045808755
234	0x3afb1302	0.0019155445
235	0x3c22778b	0.009916197
236	0xbd34ae1a	-0.04411135
237	0xbcd7cf07	-0.026343836
238	0x3d4f20b7	0.05056831
239	0xbd1d8ceb	-0.038464468
240	0x3c74fd93	0.014953035
241	0x3cdf15c5	0.02723206
242	0xbd723116	-0.059128843
243	0x3d20f0e3	0.039292227
244	0xbd0fb06a	-0.03508035
245	0xbcaafc68	-0.02087231
246	0x3b6a4c59	0.0035751073
247	0xbcfedc96	-0.031111043
248	0xbbee3939	-0.007270005
249	0xbc6e856a	-0.014558176
250	0x3d36d000	0.044631958
251	0x3d0df4f7	0.034657445
252	0xbafdee04	-0.0019373302
253	0x3d5dc8ef	0.054146703
254	0x3d44c5b2	0.0480401
255	0xbbe2c0d7	-0.006919961

context_transformer_0/ffn_layer_0/intermediate_dense/einsum/Einsum;context_transformer_0/ffn_layer_0/intermediate_dense/Relu;context_transformer_0/ffn_layer_0/intermediate_dense/add f4 [32]
0	0xbef287a3	-0.47369108
1	0xbecfd6bb	-0.40593514
2	0xbe8b1d21	-0.2717066
3	0xbe92c6f6	-0.2866742
4	0xbe463966	-0.19357833
5	0xbecf7a93	-0.40523204
6	0xbec76d65	-0.3895065
7	0xbecadeef	-0.3962321
8	0xbe1fe15a	-0.15613309
9	0xbe9d75a5	-0.30753818
10	0xbe2fd972	-0.17172793
11	0xbec8e12d	-0.39234295
12	0xbebf199f	-0.37324235
13	0xbf129d28	-0.5727105
14	0xbe70e8af	-0.23526262
15	0xbede67ee	-0.43438667
16	0xbe88ac2c	-0.26693857
17	0xbe46a2b5	-0.19398005
18	0xbe3e6add	-0.18595453
19	0xbe300af0	-0.17191672
20	0xbe72c421	-0.2370763
21	0xbe576237	-0.2103356
22	0xbe7e0f85	-0.24810608
23	0xbec0b81f	-0.37640473
24	0xbe7b8be0	-0.24565077
25	0xbe944c9a	-0.28964692
26	0xbe7ed7da	-0.24887028
27	0xbe97f27f	-0.29677197
28	0xbeac0788	-0.33599496
29	0xbef16c42	-0.47152907
30	0xbe5cc52f	-0.21559595
31	0xbeb2ff8c	-0.34960592

context_transformer_0/attention/norm/mul;context_transformer_0/attention/norm/add;context_transformer_0/ffn_layer_0/intermediate_dense/einsum/Einsum;context_transformer_0/ffn_layer_0/intermediate_dense/Relu;context_transformer_0/ffn_layer_0/intermediate_dense/add f4 [32, 32]
0	0x3d9e165a	0.07719107
1	0xbbd7785b	-0.006575627
2	0xbe569803	-0.20956425
3	0xbdf2310e	-0.11825763
4	0xbdd4d0d8	-0.10391396
5	0xbce81843	-0.028331881
6	0xbd0774f5	-0.033070523
7	0x3dca56c1	0.09879828
8	0x3cb4ecca	0.022085566
9	0x3dd396b5	0.103314795
10	0xbe8224e0	-0.25418758
11	0x3dba80b1	0.09106577
12	0xbec3c6c8	-0.38237596
13	0xbcc28208	-0.023743644
14	0xbe911512	-0.28336388
15	0x3d92c92d	0.071672775
16	0xbc6bb299	-0.014385843
17	0x3de4902d	0.11160312
18	0xbdb68d87	-0.08913713
19	0x3e409dc4	0.18810183
20	0x3ce55c69	0.027998166
21	0xbe583223	-0.21112876
22	0x3d6320cd	0.055451203
23	0xbe58f18c	-0.21185893
24	0x3e1590b1	0.14605977
25	0xbe60fcae	-0.2197139
26	0x3d47fa4f	0.048822697
27	0x3e2e20c8	0.17004693
28	0xbbde2b49	-0.0067800623
29	0x3e20cdd3	0.15703516
30	0x3e86d7f2	0.26336628
31	0x3df25d8b	0.11834248
32	0x3d9f91d5	0.07791487
33	0xbd69c8d7	-0.0570763
34	0x3df226c1	0.11823798
35	0xbe5449f0	-0.2073133
36	0x3d3f11e8	0.046647936
37	0xbd7d9458	-0.06190905
38	0x3e08b5aa	0.1335055
39	0x3d6a7813	0.057243418
40	0x3e5d1cae	0.21592972
41	0xbe278b5f	-0.1636176
42	0xbd3e5397	-0.046466436
43	0x3c6c53e2	0.014424296
44	0xbe0e2ecc	-0.13885039
45	0xbe196cbe	-0.14982888
46	0x3e2ec2fd	0.1706657
47	0x3cee6f27	0.029105736
48	0x3dba7fe1	0.09106422
49	0x3e8c12a0	0.2735796
50	0xbdb297cd	-0.0872036
51	0x3e2cd0c3	0.16876511
52	0xbe01f0e2	-0.12689546
53	0xbe1f4a82	-0.15555766
54	0x3de24f93	0.11050334
55	0x3d0a9045	0.033828992
56	0xbe7a2380	-0.24427605
57	0x3df22db6	0.11825125
58	0x3d7d02ec	0.061770365
59	0x3e8b4286	0.2719919
60	0xbc07511a	-0.008259082
61	0xbe38df34	-0.18053895
62	0xbd72807a	-0.059204556
63	0xbc20adc8	-0.009807058
64	0x3dfbdda6	0.122981355
65	0xbed49fe4	-0.41528237
66	0xbdce1542	-0.10062648
67	0xbe5a5da4	-0.21324784
68	0x3e1347d5	0.1438287
69	0xbd5aa9d9	-0.053384636
70	0x3ea17137	0.3153169
71	0x3da49119	0.08035488
72	0x3e95e773	0.29278144
73	0xbddfef96	-0.10934369
74	0x3e860f70	0.26183653
75	0xbe5333fe	-0.20625302
76	0x3cd87053	0.026420748
77	0x3cf13963	0.02944631
78	0x3e9326a9	0.28740433
79	0x3cd10eb4	0.025519706
80	0xbd25b8e0	-0.040459514
81	0x3dd90b70	0.10597885
82	0xbe3d5ed8	-0.18493211
83	0x3e2a330c	0.16621035
84	0xbdd47053	-0.10372987
85	0xbe80fd00	-0.25193024
86	0xbc3012c5	-0.0107466625
87	0x3dbd3781	0.09239102
88	0xbeb041c5	-0.34425178
89	0xbe7b0147	-0.24512206
90	0x3e8eaffc	0.2786864
91	0xbd86fb64	-0.06590918
92	0xbddb3c62	-0.107048765
93	0xbdf42448	-0.119209826
94	0xbc6ec370	-0.014572963
95	0x3d746fce	0.059676938
96	0x3e5a0683	0.21291547
97	0x3ddb359f	0.10703587
98	0xbe33955f	-0.1753745
99	0xbdd7d774	-0.10539141
100	0xbe7eb384	-0.24873167
101	0x3d656d3b	0.056012373
102	0x3e86dba7	0.26339456
103	0x3e27f775	0.16402991
104	0x3e0330be	0.12811562
105	0xbefbf30c	-0.49208868
106	0xbe122a7e	-0.14274022
107	0x3d2e452d	0.04254644
108	0xbd1ffd6b	-0.039060038
109	0xbd0cffa9	-0.034423504
110	0xbe708a84	-0.2349034
111	0x3e133eaf	0.1437938
112	0x3d8e9fc0	0.06964064
113	0xbe0f4d50	-0.13994336
114	0x3e41bbe1	0.18919326
115	0x3dec2e1a	0.11532231
116	0x3bb470ae	0.0055065965
117	0xbd83194e	-0.06401311
118	0x3dc7a100	0.09747505
119	0xbeac9a28	-0.33711362
120	0xbdbe510b	-0.092928015
121	0xbe1155da	-0.14192906
122	0x3e7abb2b	0.24485461
123	0x3dd8a533	0.10578384
124	0xbd164fed	-0.036697317
125	0xbc9c2a01	-0.019062998
126	0xbe9e8b5f	-0.30965707
127	0x3d1777d6	0.03697952
128	0x3e579023	0.21051078
129	0xbeac9e52	-0.3371454
130	0xbed4fc2f	-0.4159865
131	0xbe452c75	-0.1925524
132	0x3dadfbb9	0.08495278
133	0xbd9f7540	-0.077860355
134	0x3cd0ea1f	0.025502263
135	0x3ca6f3c4	0.020379908
136	0x3d059cbb	0.032620173
137	0xbcd0f4fe	-0.025507446
138	0x3e10f6ea	0.1415669
139	0xbde76b85	-0.112998046
140	0x39a94f31	0.00032293194
141	0xbe67a4ec	-0.22621506
142	0x3dc31201	0.09524918
143	0xbd3e4fb7	-0.04646274
144	0x3ea0bccd	0.31394044
145	0xbe08d7fc	-0.13363642
146	0x3d9d47d8	0.07679719
147	0x3e438798	0.19094694
148	0xbe952885	-0.29132476
149	0xbe847102	-0.25867468
150	0xbcb76ccc	-0.022390746
151	0xbe36dd45	-0.17857845
152	0xbea83e0b	-0.32859835
153	0x3e816226	0.25270194
154	0x3ede5916	0.43427342
155	0xbdc54c40	-0.09633684
156	0x3da3fd96	0.08007352
157	0xbe8c04ed	-0.27347508
158	0xbe55aa41	-0.20865728
159	0xbe3ee8c8	-0.18643486
160	0x3db9cfcb	0.090728365
161	0xbca6cc3b	-0.020361057
162	0x3e088a0e	0.13333914
163	0xbe30f229	-0.17279877
164	0xbc3ba8f7	-0.011453859
165	0x3d092688	0.033484012
166	0x3ee157a4	0.44012177
167	0x3cc74643	0.024325496
168	0x3d57fe30	0.052732646
169	0x3d0335da	0.03203378
170	0x3e14ff53	0.14550523
171	0x3e932571	0.28739503
172	0x3c892dd1	0.01674548
173	0xbf2400ff	-0.6406402
174	0xbe2fc5c2	-0.17165282
175	0x3dbe48bd	0.092912175
176	0xbda83375	-0.0821294
177	0x3dfed5e5	0.12443141
178	0xbe1c7075	-0.15277274
179	0xbe3993e6	-0.18122825
180	0x3d2f6acd	0.042826463
181	0xbc6ea2d4	-0.014565188
182	0x3e1d64d4	0.15370494
183	0x3d95b30d	0.07309542
184	0xbe08d356	-0.13361868
185	0xbdba2042	-0.09088184
186	0x3e4968f7	0.19668947
187	0x3e7238f8	0.23654544
188	0xbe396f71	-0.18108918
189	0x3e497a0a	0.1967546
190	0x3d3c545e	0.045978896
191	0x3ddb0a6a	0.10695346
192	0x3d309613	0.043111872
193	0xbda458d2	-0.08024754
194	0xbd7ea744	-0.062171236
195	0xbd7f1960	-0.06228006
196	0x3dc459d5	0.095874466
197	0xbe421960	-0.18954992
198	0xbe17a428	-0.14808714
199	0xbd9ed0d5	-0.07754675
200	0x3dfcdf3f	0.12347268
201	0xbe256931	-0.16153409
202	0x3d9be299	0.076115794
203	0xbd970513	-0.07374015
204	0xbd86222c	-0.065494865
205	0xbf220cea	-0.63300955
206	0x3e153867	0.14572297
207	0x3cd8d721	0.026469769
208	0x3e2b7b09	0.16746153
209	0xbcbafb25	-0.022824833
210	0x3d71e7a2	0.059058793
211	0x3d36d6d0	0.044638455
212	0xbe84d5d8	-0.259444
213	0xbe1936b5	-0.14962275
214	0xbda235eb	-0.0792044
215	0xbe826495	-0.25467363
216	0xbd918aa6	-0.07106523
217	0x3e3a7b2d	0.1821105
218	0x3e051950	0.12997937
219	0x3d117e1c	0.035520658
220	0xbe90fa5b	-0.28316006
221	0xbd9a8bad	-0.07546172
222	0x3d5904ea	0.052983202
223	0xbb2a3f1e	-0.0025977562
224	0xbd488eb3	-0.048964214
225	0xbe72994e	-0.23691294
226	0x3d537108	0.051621467
227	0x3d6702f9	0.05639932
228	0x3e36904c	0.17828482
229	0xbe2d1fc0	-0.16906643
230	0x3e14d33d	0.14533706
231	0xbe29bf6d	-0.1657693
232	0x3ca05425	0.019571373
233	0xbed85554	-0.422526
234	0x3da664eb	0.08124717
235	0xbd00d14e	-0.03144961
236	0x3cfda5dc	0.030962877
237	0xbe54a640	-0.20766544
238	0x3d935482	0.07193853
239	0xbd9b2d16	-0.07576959
240	0xbc1f6486	-0.0097285565
241	0xbdf5a0b7	-0.119935445
242	0xbe6b68c9	-0.22989191
243	0xbe2e7004	-0.17034918
244	0xbdef471c	-0.11683485
245	0xbe577dd5	-0.21044095
246	0xbd510f46	-0.051039957
247	0x3b35a7f7	0.0027718523
248	0xbe040e8f	-0.12896179
249	0x3d3a93b5	0.04555102
250	0x3de7e816	0.11323564
251	0x3e179d27	0.14806043
252	0x3cb7c6bb	0.02243363
253	0xbe01e364	-0.12684399
254	0xbd2c3c3b	-0.042049628
255	0xbd27c6d6	-0.04096111

context_transformer_0/ffn_layer_1/intermediate_dense/einsum/Einsum;context_transformer_0/ffn_layer_1/intermediate_dense/Relu;context_transformer_0/ffn_layer_1/intermediate_dense/add f4 [32]
0	0xbdbac513	-0.0911962
1	0xbe2b0bc0	-0.16703701
2	0x3cebbca0	0.028776467
3	0xbd55ad18	-0.05216703
4	0xbe28e084	-0.16491896
5	0xbe174282	-0.14771464
6	0x3d3c1741	0.045920614
7	0xbe81b5b9	-0.25333956
8	0x3e559cb0	0.20860553
9	0x3b7426a7	0.0037254484
10	0x3d5b67f7	0.053565945
11	0xb8ac5ec2	-8.219249e-05
12	0xbe03bad8	-0.12864244
13	0xbecd6261	-0.4011412
14	0xbdc5dcac	-0.096612304
15	0xbeb4f824	-0.35345566
16	0xbd802386	-0.062567756
17	0x3e835858	0.25653338
18	0x3dddb616	0.10825746
19	0xbe41ef0a	-0.18938842
20	0xbcccd82c	-0.025005423
21	0xbeb105a8	-0.34574628
22	0x3ec0dd7c	0.3766898
23	0xbd0a989d	-0.03383695
24	0xbdd8a370	-0.10578048
25	0xbd9af347	-0.07565933
26	0x3d6c06d3	0.057623696
27	0xbdd81d80	-0.10552502
28	0xbc89f93d	-0.016842479
29	0x3c69d3f2	0.014271723
30	0xbe7c5893	-0.24643163
31	0xbd6b4436	-0.057438098

context_transformer_0/ffn_layer_0/norm/mul;context_transformer_0/ffn_layer_0/norm/add;context_transformer_0/ffn_layer_1/intermediate_dense/einsum/Einsum;context_transformer_0/ffn_layer_1/intermediate_dense/Relu;context_transformer_0/ffn_layer_1/intermediate_dense/add f4 [32, 32]
0	0xbdbbebac	-0.0917581
1	0xbe15daa9	-0.14634193
2	0xbe0c13c8	-0.13679421
3	0x3e16cff3	0.14727764
4	0x3c170739	0.009218031
5	0x3d9ff9b3	0.07811298
6	0xbd078ae9	-0.03309146
7	0xbe4769fc	-0.19474024
8	0xbdabe332	-0.083929434
9	0xbebd4bde	-0.36971945
10	0xbe65603d	-0.22399993
11	0x3ddd82aa	0.10815938
12	0x3e27efdf	0.16400097
13	0xbbf94e8a	-0.0076082395
14	0xbe31b169	-0.17352833
15	0xbd82a907	-0.06379896
16	0xbc2def17	-0.0106160855
17	0x3e2c1e30	0.1680839
18	0xbed2958f	-0.4112973
19	0xbea4a560	-0.3215742
20	0xbd579fa1	-0.05264247
21	0xbdac303f	-0.0840764
22	0xbd95de5a	-0.07317801
23	0x3c51fe1d	0.012816933
24	0x3ebbaaa8	0.36653638
25	0x3d425db0	0.04745263
26	0x3ec37940	0.38178444
27	0xbea117d5	-0.31463495
28	0x3e69f123	0.22845893
29	0xbe01deea	-0.12682691
30	0x3d4d30a6	0.050095223
31	0xbd8733bb	-0.06601664
32	0xbd0812d8	-0.033221096
33	0xbd757be3	-0.0599326
34	0x3e30d201	0.1726761
35	0xbd3e4fe8	-0.046462923
36	0xbe23ca2d	-0.15995093
37	0x3e132ec4	0.14373308
38	0x3db00dde	0.08596395
39	0x3def21a6	0.1167634
40	0xbe1800a8	-0.14844
41	0xbd903cfd	-0.070428826
42	0xbc09c29b	-0.008408214
43	0xbdc8ee41	-0.09811068
44	0x3df9216f	0.1216458
45	0x3e0dc2cc	0.1384384
46	0x3ec65533	0.38736877
47	0x3dcec3f6	0.1009597
48	0xbd8682d3	-0.065679215
49	0xbd60b976	-0.05486437
50	0xbdefbbbd	-0.1170573
51	0x3def0036	0.11669962
52	0x3e423727	0.18966351
53	0x3d99ee04	0.07516101
54	0x3c108a66	0.008822059
55	0x3e3b2a43	0.1827784
56	0x3e353efd	0.1769981
57	0xbead936c	-0.33901536
58	0x3dde49bd	0.10853908
59	0xbed57f77	-0.4169881
60	0x3e27ee1c	0.16399425
61	0x3e032de7	0.12810479
62	0xbd117358	-0.03551039
63	0xbd521870	-0.051292837
64	0x3d1f749d	0.03892957
65	0x3e9ca0fd	0.30591574
66	0x3e9ed1a3	0.31019315
67	0x3d54cefc	0.05195521
68	0xbd94a092	-0.07257189
69	0x3c75c8e8	0.015001513
70	0xbe6b37ab	-0.22970454
71	0xbe82f3c6	-0.2557661
72	0xbe07f873	-0.1327837
73	0xbcef6f51	-0.029227884
74	0xbd1c6c66	-0.038189314
75	0x3e89d2a2	0.26918513
76	0x3c8ab64d	0.01693263
77	0xbed5031b	-0.41603932
78	0xbeebcf3d	-0.46056548
79	0x3d2a7580	0.041615963
80	0x3e8f870c	0.2803272
81	0xbe5a66b6	-0.21328244
82	0xbe19866a	-0.14992681
83	0xbed09d51	-0.40745023
84	0x3e37a147	0.17932616
85	0x3c8e0efd	0.017341131
86	0x3cff0497	0.031130118
87	0xbdebea24	-0.11519268
88	0x3e88caa6	0.26717108
89	0x3eb0b3f2	0.34512287
90	0x3ddc9165	0.10769919
91	0x3e45f0b9	0.1933011
92	0x3e0f1262	0.13971856
93	0xbe94d545	-0.29068962
94	0x3d3c3201	0.045946125
95	0xbd8af6ac	-0.0678533
96	0x3d8560ad	0.0651258
97	0xbdf59ef5	-0.11993209
98	0x3cf5d698	0.030009553
99	0xbbee415a	-0.007270974
100	0x3df9789a	0.12181206
101	0xbe893e4f	-0.2680535
102	0xbe6339e4	-0.22190052
103	0xbdd3f6b5	-0.1034979
104	0x3ce54378	0.027986273
105	0xbed8b0d7	-0.42322418
106	0x3df541a5	0.11975411
107	0x3cb97722	0.022639815
108	0xbe53a829	-0.20669617
109	0xbef3aa2f	-0.47590777
110	0x3e0eb5fd	0.1393661
111	0xbca7864b	-0.020449778
112	0xbd9b98a1	-0.07597471
113	0xbe29a303	-0.1656609
114	0x3ea663ba	0.3249796
115	0x3e1262a4	0.14295441
116	0x3e74a9f7	0.23892961
117	0xbe2f6103	-0.17126851
118	0x3d77cf8c	0.060500666
119	0xbdada963	-0.084795736
120	0xbe0c511c	-0.13702816
121	0x3e668659	0.22512187
122	0x3e9e45ad	0.30912533
123	0xbc8cef1d	-0.017203862
124	0x3dfed34f	0.12442648
125	0x3eb7c8ca	0.35895377
126	0xbc355418	-0.011067413
127	0x3d943dc4	0.07238343
128	0xbcb09457	-0.021555109
129	0xbde9d45b	-0.11417457
130	0xbdbacbc5	-0.09120897
131	0xbd082294	-0.0332361
132	0x3e8980c0	0.2685604
133	0xbe39c4ac	-0.1814143
134	0x3e4dcf7f	0.20098685
135	0x3ea05e96	0.31322163
136	0xbdb8f9c4	-0.09032014
137	0x3e1a5bc4	0.15074068
138	0xbedf0228	-0.43556333
139	0x3dac17b3	0.08402958
140	0x3d5911a0	0.052995324
141	0x3e084cd5	0.13310559
142	0x3d7d6b11	0.061869685
143	0xbd4aac12	-0.049480505
144	0x3d90c16d	0.07068143
145	0x3df25bf4	0.11833945
146	0xbe885c0c	-0.26632726
147	0x3e9904ac	0.29886377
148	0x3e0d25cc	0.1378395
149	0xbe3ca4fb	-0.1842231
150	0xbdb40deb	-0.08791717
151	0x3e2dd31d	0.16975065
152	0xbde1c820	-0.11024499
153	0xbe69837f	-0.22804068
154	0x3e94fb52	0.29097992
155	0xbdcd7f14	-0.10034004
156	0xbed719fc	-0.42012012
157	0xbe693b1c	-0.22776455
158	0xbced0ac9	-0.028935807
159	0x3e232ed2	0.1593583
160	0xbbb07d47	-0.005386028
161	0xbc50e621	-0.0127501795
162	0x3ea36c24	0.31918442
163	0xbc22a064	-0.009925935
164	0xbc81027a	-0.015748251
165	0x3e897281	0.26845172
166	0xbdabc72b	-0.08387598
167	0xbd32fd39	-0.043698523
168	0x3df91edb	0.12164088
169	0xbea7b66c	-0.32756364
170	0x3e9acee7	0.3023598
171	0x3ce49394	0.027902402
172	0x3e17284e	0.14761469
173	0x3e50bb51	0.20383956
174	0x3c2acc37	0.010424665
175	0x3de8e303	0.11371424
176	0xbe37f347	-0.17963897
177	0xbc8294f1	-0.015940161
178	0xbe01fa74	-0.12693197
179	0x3e22fe67	0.1591736
180	0x3c0bad7c	0.008525249
181	0x3e933743	0.287531
182	0x3d4bbe51	0.049742047
183	0xbdef3a8e	-0.1168109
184	0x3e10c663	0.14138179
185	0xbe5c6822	-0.21524099
186	0xbdeaeb0f	-0.11470615
187	0xbe5d5540	-0.21614552
188	0x3eadf896	0.3397872
189	0x3dfc52a6	0.123204514
190	0x3dea87b2	0.11451663
191	0x3c374da7	0.011187947
192	0x3e328b1d	0.1743588
193	0x3e004347	0.12525664
194	0xbe5d3543	-0.21602349
195	0xbea69776	-0.3253743
196	0xbc47f8e9	-0.012205341
197	0xbd7659af	-0.060144123
198	0xbb3e2d6a	-0.0029018768
199	0x3ad401e5	0.0016174881
200	0x3dd6a20d	0.104801275
201	0x3daca65d	0.08430169
202	0xbe78eb2e	-0.24308464
203	0x3e1141ec	0.14185303
204	0xbdea2c78	-0.11434263
205	0xbf1adde4	-0.6049483
206	0x3d4b2864	0.049599066
207	0x3e42223f	0.18958376
208	0x3e2ce3e6	0.16883811
209	0x3dfc6a53	0.12324967
210	0xbe912e7d	-0.2835578
211	0x3e191628	0.14949858
212	0xbd7ac76d	-0.061225343
213	0xbd008f37	-0.03138658
214	0x3e8689d2	0.26277024
215	0xbd84c652	-0.06483139
216	0xbdab38cd	-0.08360443
217	0xbea107e8	-0.31451344
218	0x3e949b87	0.29024908
219	0x3c76a20c	0.015053283
220	0x3ddf81c5	0.109134234
221	0xbdb1d9ef	-0.08684146
222	0x3e318ebe	0.17339608
223	0x3dc4690d	0.09590349
224	0x3c564223	0.013077292
225	0x3e68ccfd	0.22734447
226	0xbe3b880c	-0.18313617
227	0x3d0c98a1	0.034325246
228	0x3c26e186	0.010185605
229	0xbe93b973	-0.28852424
230	0x3db2b9af	0.087268226
231	0x3e475755	0.19466908
232	0xbd29ad2f	-0.041424926
233	0x3dd5c18f	0.10437309
234	0xbe6ed7a3	-0.23324446
235	0xbdade8c3	-0.084916614
236	0xbdc5f9ef	-0.09666812
237	0x3d3c2668	0.045935065
238	0x3e2702ca	0.16309658
239	0x3d600e11	0.054700915
240	0x3f20fbef	0.6288442
241	0xbe80ed8c	-0.25181234
242	0xbea04865	-0.31305233
243	0xbe25937e	-0.16169545
244	0x3d9c8bf5	0.07643882
245	0xbd788d17	-0.06068143
246	0x3d371d51	0.044705693
247	0xbd14cf38	-0.03633043
248	0x3ebff8ac	0.3749441
249	0x3d473c88	0.04864171
250	0x3d5859f8	0.052820176
251	0xbe09c6e3	-0.13454776
252	0x3db6d2a3	0.089268945
253	0xbe59cf90	-0.21270585
254	0xbe28ff4c	-0.16503638
255	0xbd57ffd0	-0.052734196

context_transformer_0/ffn_layer_2/intermediate_dense/einsum/Einsum;context_transformer_0/ffn_layer_2/intermediate_dense/Relu;context_transformer_0/ffn_layer_2/intermediate_dense/add f4 [32]
0	0xbe7d653b	-0.24745648
1	0xbe804baf	-0.25057742
2	0xbe203dd2	-0.15648583
3	0xbc005506	-0.007832771
4	0xbe13b1e3	-0.14423327
5	0xbed8945d	-0.42300692
6	0xbe633835	-0.2218941
7	0xbde740ca	-0.112916544
8	0xbd9350e3	-0.07193162
9	0xbe3daf7e	-0.18523976
10	0xbd4fd996	-0.050744615
11	0xbd05db37	-0.032679763
12	0x3d8832bf	0.06650304
13	0xbe9bcc39	-0.30429247
14	0xbe9f07ce	-0.31060642
15	0xbd6f6850	-0.05844909
16	0xbe945ee1	-0.28978637
17	0x3e803f07	0.25048086
18	0xbea62db7	-0.32456753
19	0x3ccc384c	0.024929188
20	0xbe29db1e	-0.16587493
21	0xbe21d9ff	-0.15805815
22	0xbdb4f9f5	-0.08836738
23	0xbe8122a9	-0.25221756
24	0xbd99f795	-0.07517926
25	0xbd7d83f0	-0.061893404
26	0xbd56bb04	-0.052424446
27	0x3dd1bca3	0.10241058
28	0xbe15d856	-0.14633307
29	0xbd5a5b0d	-0.05330949
30	0x3e2da44d	0.16957207
31	0xbe2887ec	-0.164581

context_transformer_0/ffn_layer_1/norm/mul;context_transformer_0/ffn_layer_1/norm/add;context_transformer_0/ffn_layer_2/intermediate_dense/einsum/Einsum;context_transformer_0/ffn_layer_2/intermediate_dense/Relu;context_transformer_0/ffn_layer_2/intermediate_dense/add f4 [32, 32]
0	0xbdf9d32b	-0.1219848
1	0xbce6cf1e	-0.028174933
2	0x3e468ab9	0.19388856
3	0x3d22464a	0.039617814
4	0x3af08239	0.0018349356
5	0x3eb41e6e	0.35179466
6	0xbd2db321	-0.04240716
7	0xbe4c6983	-0.19962125
8	0x3cb4fd09	0.022093313
9	0xbda9d6cc	-0.082929224
10	0xbd6ef726	-0.058341168
11	0x3e129695	0.14315255
12	0xbe41ae31	-0.18914105
13	0x3cb04186	0.021515619
14	0x3d946626	0.07246046
15	0x3db0e7b0	0.08637941
16	0xbe5bb172	-0.21454409
17	0xbd63b295	-0.05559023
18	0xbd6db366	-0.058032416
19	0x3db111ef	0.08645999
20	0x3ecd17a9	0.40057114
21	0x3e358b7d	0.17728992
22	0x3e8f34d0	0.2796998
23	0x3e652da8	0.22380698
24	0xbe970603	-0.29496774
25	0xbe1d178a	-0.1534101
26	0xbd0257f1	-0.03182215
27	0x3def906d	0.11697469
28	0x3e325e2c	0.17418736
29	0x3e1b69bd	0.15177055
30	0x3e1aade8	0.15105402
31	0xbe3535e0	-0.17696333
32	0x3b1c5f5b	0.0023860547
33	0xbc81a975	-0.015827874
34	0x3e00c81f	0.1257634
35	0xbd8763ab	-0.06610807
36	0x3e8a4992	0.27009255
37	0x3de921c8	0.113833964
38	0x3df5a649	0.11994607
39	0xbe99641a	-0.29959184
40	0x3e1cb64e	0.15303919
41	0xbd1fa493	-0.03897531
42	0x3de1abe2	0.11019112
43	0xbe8d19e2	-0.2755881
44	0x3d8b092a	0.06788857
45	0x3d16aa37	0.036783423
46	0x3dbfc42c	0.09363589
47	0x3e0c8605	0.13723
48	0x3d77dcc5	0.060513277
49	0x3e2fd620	0.17171526
50	0x3e32052f	0.1738479
51	0x3d618ebb	0.05506776
52	0x3e4ac034	0.19799882
53	0x3da928c9	0.08259732
54	0x3e1af0f5	0.1513098
55	0x3c896da1	0.016775908
56	0xbec5339a	-0.3851593
57	0x3e16e2b1	0.14734913
58	0xbe1d0326	-0.15333232
59	0xbba65afe	-0.005076765
60	0x3e05ba33	0.1305931
61	0x3cec73a3	0.028863734
62	0x3cdd36f7	0.027003748
63	0xbe80f469	-0.2518647
64	0x3d3fb641	0.04680467
65	0x3c579b21	0.013159544
66	0x3cef24ab	0.02919229
67	0xbcee0a36	-0.029057603
68	0xbde24932	-0.11049117
69	0xbd7b6bf5	-0.061382253
70	0xbd0af3e0	-0.033923984
71	0xbd395aee	-0.045252733
72	0xbd65d130	-0.0561077
73	0xbdd2d36f	-0.10294234
74	0xbe5e3e1b	-0.21703379
75	0xbdac3125	-0.08407811
76	0xbbdfa948	-0.0068256
77	0xbd0a7c69	-0.033810053
78	0xbdd32c7b	-0.10311218
79	0x3d028258	0.031862587
80	0xbd8b70e7	-0.06808644
81	0x3ca01cee	0.019545045
82	0x3e02285e	0.12710711
83	0xbdc9bcca	-0.09850462
84	0x3d5700db	0.05249105
85	0xbcaf0046	-0.021362435
86	0xbc98c715	-0.018649617
87	0xbd9f25a7	-0.077708535
88	0x3d3d28ea	0.046181597
89	0xbc955fb4	-0.018234111
90	0x3c9243c1	0.017854573
91	0x3cb67746	0.02227367
92	0xbccb29e8	-0.024800256
93	0x3d290270	0.04126209
94	0xbd6936c0	-0.05693698
95	0xbd40f0e5	-0.047104735
96	0x3d60202c	0.05471818
97	0x3e93a2c7	0.28835127
98	0x3e3a3cb2	0.18187216
99	0xbd9bba80	-0.076039314
100	0x3cedcc0d	0.029027963
101	0xbe084475	-0.13307364
102	0xbe34dedc	-0.17663139
103	0x3deca03d	0.115540005
104	0x3e4d6d9e	0.20061347
105	0xbe5030ce	-0.20331118
106	0x3dda5818	0.10661334
107	0x3e9122bf	0.28346822
108	0x3d917b18	0.071035564
109	0xbd8dc8f7	-0.069230966
110	0x3e5546ab	0.20827739
111	0x3e325dc6	0.17418584
112	0x3e90be68	0.28270268
113	0xbbd9bf75	-0.006645138
114	0x3e19d732	0.15023497
115	0xbe4b3264	-0.19843441
116	0xbdd23606	-0.102642104
117	0x3d7f7ee0	0.062376857
118	0x3cd6ef0d	0.026237035
119	0xbe1a0c44	-0.15043741
120	0xbe0c4e5f	-0.13701771
121	0x3c82345d	0.01589411
122	0xbe808e79	-0.25108698
123	0x3d9dbbc0	0.07701826
124	0xbde6d66e	-0.11271368
125	0xbd660a25	-0.05616202
126	0xbe834aa8	-0.25642896
127	0x3e16b38f	0.14716934
128	0xbe41e4c5	-0.18934925
129	0xbe3624b7	-0.17787443
130	0xbe1dba84	-0.15403181
131	0x3e21181f	0.15731858
132	0xbe0bbf39	-0.13647164
133	0x3eae1b0b	0.34005007
134	0xbdfaec74	-0.12252131
135	0xbe72d6bc	-0.23714727
136	0xbe3cbad8	-0.1843065
137	0xbdd961a3	-0.10614326
138	0xbe02ed8d	-0.12785931
139	0xbc805a83	-0.01566816
140	0xbd57cf93	-0.052688193
141	0xbde57fdd	-0.112060286
142	0xbdf5f4ac	-0.12009558
143	0xbd2d049a	-0.042240717
144	0xbdabf78f	-0.083968274
145	0x3e77fc59	0.24217357
146	0xbdd5551c	-0.10416624
147	0xbed8ab26	-0.42318076
148	0x3e44cefd	0.19219585
149	0x3d12db65	0.035853762
150	0xbbe257dd	-0.006907447
151	0x3e807654	0.25090277
152	0xbe3818ca	-0.17978206
153	0x3de10412	0.109871045
154	0x3d95b292	0.0730945
155	0x3de72598	0.11286467
156	0x3df1c421	0.11804987
157	0x3d54e3f9	0.051975224
158	0xbd4dcb0f	-0.05024248
159	0xbc876044	-0.016525395
160	0xbe303392	-0.17207173
161	0x3e2cc48d	0.16871853
162	0xbd3209a1	-0.043466214
163	0x3d2af10d	0.04173379
164	0xbd8e356f	-0.069437854
165	0x3eae5cc7	0.34055158
166	0xbde5f061	-0.11227489
167	0x3dcbc7a8	0.09950191
168	0xbe3b7601	-0.18306734
169	0xbda078ce	-0.07835542
170	0xbe847039	-0.2586687
171	0x3db21f72	0.08697404
172	0xbe11aea7	-0.14226781
173	0x3d21c064	0.03949012
174	0x3e2e78cd	0.1703827
175	0x3ce1acde	0.02754825
176	0xbdfa463a	-0.12220426
177	0x3abcb097	0.001439589
178	0x3e2a5999	0.16635741
179	0xbdebc93e	-0.11512993
180	0x3ef21bc0	0.47286797
181	0x3e7955f8	0.243492
182	0x3abe4db8	0.0014519012
183	0xbdd5a9cd	-0.104327776
184	0x3e5501d1	0.20801474
185	0x3d131c6a	0.03591577
186	0xbe84b262	-0.25917345
187	0x3e4d0109	0.20019926
188	0x3d5a6fde	0.05332934
189	0xbd01ae14	-0.031660154
190	0x3ee3444f	0.44388053
191	0x3db6ee92	0.089322224
192	0xbdc32767	-0.09529
193	0xbe94c8aa	-0.29059345
194	0x3dda5638	0.10660976
195	0xbd0eda75	-0.034876306
196	0xbdafc166	-0.0858181
197	0x3d100609	0.035162006
198	0x3e14a853	0.14517336
199	0xbd38d40b	-0.045124095
200	0x3bdee08a	0.0068016695
201	0x3d27f54a	0.04100541
202	0x3c95a9c0	0.01826942
203	0x3d5028ec	0.050820276
204	0x3e9c5143	0.30530748
205	0xbd86bcc9	-0.06578977
206	0x3e0bf505	0.13667686
207	0xbd71e34a	-0.05905465
208	0x3cf8a9fc	0.030354492
209	0x3ecd040d	0.40042153
210	0x3c1151f5	0.008869638
211	0xbe247e11	-0.16063716
212	0x3e3e6da8	0.18596518
213	0x3cc80f13	0.02442125
214	0x3cb0a007	0.021560682
215	0x3eb4eb5f	0.35335824
216	0xbe4aeda2	-0.19817212
217	0x3de56cdf	0.11202406
218	0x3dc57adf	0.096425764
219	0x3e32709e	0.17425773
220	0x3ea65b3c	0.3249148
221	0xbe878eba	-0.2647608
222	0x3ce335bc	0.027735583
223	0xbcf9ea8e	-0.030507352
224	0xbdbc590b	-0.09196671
225	0x3e8b67ff	0.2722778
226	0xbead4285	-0.33839813
227	0x3d411982	0.047143467
228	0x3da152d6	0.07877128
229	0xbea6a724	-0.32549393
230	0x3caec5d6	0.02133457
231	0xbd9c9554	-0.076456696
232	0x3e84acce	0.2591309
233	0xbe169ebb	-0.14708988
234	0x3d27b968	0.0409483
235	0x3f04c53e	0.5186347
236	0x3cc8acc5	0.024496445
237	0xbd83d135	-0.064363874
238	0x3c835934	0.016033746
239	0xbab0a927	-0.0013478146
240	0x3d1501d0	0.03637868
241	0xbbd40e46	-0.006471428
242	0x3d6ba537	0.057530608
243	0xbe0774ea	-0.13228193
244	0x3c56ab0f	0.013102307
245	0xbde55023	-0.111969255
246	0xbdb6b1ce	-0.08920632
247	0xbd776990	-0.060403407
248	0xbdb0b7a1	-0.086287744
249	0xbe19a488	-0.1500417
250	0x3e47c64a	0.19509235
251	0x3dcf3b62	0.10118748
252	0xbe50f369	-0.20405354
253	0x3e228dae	0.15874359
254	0xbe148375	-0.14503272
255	0xbda9c7fb	-0.08290096

context_transformer_0/ffn_layer_3/intermediate_dense/einsum/Einsum;context_transformer_0/ffn_layer_3/intermediate_dense/Relu;context_transformer_0/ffn_layer_3/intermediate_dense/add f4 [32]
0	0xbc2b217e	-0.010444997
1	0xbed63512	-0.41837364
2	0xbe1b0e2a	-0.15142122
3	0xbdf945a9	-0.1217149
4	0xbe96391f	-0.29340455
5	0xbd932b48	-0.071859896
6	0xbe1dc80a	-0.1540834
7	0xbd9484f4	-0.07251921
8	0xbe737567	-0.23775254
9	0xbd864db5	-0.0655779
10	0xbe638b64	-0.22221142
11	0xbd9350ab	-0.071931206
12	0xbe8f4e10	-0.27989244
13	0xbe1c5b29	-0.1526915
14	0xbe31bcb2	-0.17357138
15	0xbdd094da	-0.10184641
16	0xbe3114a4	-0.1729303
17	0xbe9183c4	-0.28420842
18	0xbdc9ad20	-0.09847474
19	0xbec92698	-0.39287257
20	0xbe44b457	-0.19209419
21	0xbda9c66f	-0.08289801
22	0xbda24955	-0.07924143
23	0xbe6de180	-0.23230553
24	0xbd2e45d7	-0.042547073
25	0xbe3480c8	-0.17627251
26	0xbe212877	-0.15738092
27	0xbd9de09c	-0.077088565
28	0xbe130f01	-0.14361192
29	0xbe75e7c9	-0.240142
30	0xbdb6554e	-0.08902989
31	0xbddc8e34	-0.107693106
