.dart_tool/chrome-device/Default/optimization_guide_prediction_model_downloads/bd374900-900f-4128-9970-b3b69f95a9c0/model.tflite (tflite, 410364 bytes, 166 tensors)

context_transformer_0/bottleneck_input/norm/add f4 [32]
000000 b4 73 2d bc 3e 74 81 3d 2f e7 05 bd 3d 4d a5 bc
       -0.010586668 0.063209996 -0.032691177 -0.020178432
000010 88 90 ae 3c 8c 37 00 3e b2 e3 69 bd db d2 65 3d
       0.021309152 0.1252119 -0.057101913 0.05610929
000020 32 12 17 bd 0a 39 b7 3d 96 c7 bc 3a 06 87 13 3e
       -0.036882587 0.08946426 0.0014402743 0.14406976
000030 99 c8 81 3d 46 68 3e 3d ec e1 90 bd 0d 55 83 bc
       0.06337089 0.04648616 -0.07074341 -0.016031766
000040 59 3a 40 3d 62 38 ee 3d 6a 1c 9e 3d 8a 92 12 3e
       0.046930645 0.11631848 0.07720263 0.14313713
000050 0e ef 34 3e 0e b0 8c 3e d0 15 30 bd 06 1f ae 3d
       0.17669317 0.2747807 -0.042989552 0.08502011
000060 70 d3 5c bd 86 1c 10 3d f8 0a 4c 3e 7b 33 4b bd
       -0.05391258 0.035183452 0.19926059 -0.049609642
000070 b6 13 16 3c 38 9b a8 bd 6e 04 e0 3d 84 4e 21 bd
       0.009159973 -0.082327306 0.10938345 -0.03938152

context_transformer_1/bottleneck_input/norm/add f4 [32]
000000 72 0f 0f be 31 f8 16 3d 6c c2 5a 3e ba 37 a9 3e
       -0.13970736 0.036857788 0.21363229 0.33050328
000010 45 1e 88 bd 56 3c 1b 3e 32 9b 20 3e ee 76 10 bc
       -0.066463985 0.15159735 0.15684202 -0.008817418
000020 08 b4 24 bd 7b 1f 8e 3c 56 d2 1a 3e f4 4f 07 bd
       -0.040210754 0.017348995 0.151193 -0.033035234
000030 ae c1 37 3d bc a2 92 3c be 6f 35 3d a8 8b 86 3c
       0.04486244 0.017899863 0.04429602 0.016424015
000040 8c 9f d9 3d 4d 27 9d 3d 1d 33 a8 be 2d 00 3f 3e
       0.10626134 0.07673512 -0.32851496 0.18652411
000050 4a ba 08 3e 90 72 c1 bc 7c 48 53 bd 78 32 b4 bd
       0.13352314 -0.023614198 -0.0515828 -0.08798689
000060 12 7c c2 3d 94 7b c7 3d 75 65 8f 3d 78 69 58 3e
       0.09496321 0.097403675 0.07001773 0.21133983
000070 40 e8 6c be 70 15 c3 bc 88 5f 35 bc fe c4 2e 3e
       -0.23135471 -0.023813933 -0.01107014 0.17067334

mention_transformer_0/bottleneck_input/norm/add f4 [32]
000000 e1 9d 1c 3d 3a 4c dc bb b5 4b b2 3c d8 bf 03 3e
       0.038236503 -0.006722954 0.021764616 0.12866151
000010 6b 27 7f be 5c b3 3f 3e c6 4b 88 bd 01 cb 31 bb
       -0.2491738 0.18720764 -0.06655078 -0.0027129056
000020 69 b7 00 3d b4 26 f7 3c e8 f8 9f 3e 44 42 49 bd
       0.031424914 0.030169822 0.31244588 -0.04913546
000030 ea 7f 8c bc 0a cb 85 bd 4f 9a 35 3d 09 0a 43 be
       -0.017150838 -0.06532867 0.044336613 -0.19046797
000040 26 e5 e7 3d 00 bd 53 be c2 a4 14 3e c7 68 3e bb
       0.113230035 -0.20677567 0.14515975 -0.0029054151
000050 de ad 10 bc 6d 5f 22 3e 7a 27 a3 bd 69 53 79 3d
       -0.008830516 0.15856715 -0.07966514 0.06087056
000060 1a 0c cb 3c d2 0d 0c be 80 32 32 be 26 f9 05 bc
       0.024786044 -0.13677147 -0.17402077 -0.008177077
000070 c4 26 eb bc 87 72 86 3d c3 65 cb 3d c2 ea 3d be
       -0.028705008 0.06564813 0.09931519 -0.18546584

mention_transformer_1/bottleneck_input/norm/add f4 [32]
000000 8e 72 81 be 24 bc 0f 3e 90 a9 09 be 24 78 1b bd
       -0.2528271 0.14036614 -0.13443589 -0.037956372
000010 6b dd 84 3d 09 b6 1d be b8 b3 5d 3e 83 b2 0a 3d
       0.064875446 -0.15401472 0.21650589 0.03386165
000020 87 b4 aa 3d f4 39 9b 3d fa 25 c9 bd a2 78 e6 bc
       0.08335214 0.07579413 -0.098216966 -0.028133694
000030 70 56 db bb ac 57 81 3c bc e2 8b be cb 84 25 3e
       -0.0066936538 0.015788876 -0.27321422 0.16163938
000040 5b 6c 5c 3e ba 96 71 3d 82 6e 01 3e 93 ed 81 3e
       0.2152571 0.058981635 0.12639812 0.25376567
000050 f5 1f 9f 3d b8 cd 90 3e e6 a2 76 be 6f d5 8c be
       0.07769767 0.2828195 -0.24085578 -0.27506587
000060 2c 4a 13 be be 45 94 3d be d3 f3 bd 30 1e 11 bc
       -0.14383763 0.07239865 -0.11905621 -0.008857295
000070 9a 35 cf 3d 05 48 9c be 76 f8 62 3d 61 56 24 3d
       0.101176456 -0.30523697 0.055412732 0.04012144

context_transformer_0/attention/value/add;context_transformer_0/attention/value/einsum/Einsum;context_transformer_0/attention/value/add/ReadVariableOp/resource f4 [32]
000000 11 58 9f 3d 8e c4 9c 3d 8d 0b 8e 3d 9e 64 ae 3d
       0.07780469 0.07654677 0.06935797 0.08515285
000010 99 47 aa 3d b8 a9 72 bd e6 79 08 3d 50 96 e8 3d
       0.083144374 -0.059243888 0.033319376 0.11356795
000020 29 c2 80 bd 4d d2 9f 3d f7 41 23 3d d4 eb 5b bd
       -0.06287033 0.078037836 0.03985783 -0.0536917
000030 38 5b 26 bb cd 67 38 bd cb 12 64 3b de af 09 3c
       -0.002538396 -0.045020867 0.003480124 0.008403746
000040 17 f2 32 bd 43 b8 a0 bd bc 56 2d 3d 53 06 6a bd
       -0.043687906 -0.07847645 0.042319044 -0.057134937
000050 7f 78 3d bd a2 86 d3 3c 92 98 83 bd 9a 0f e6 bb
       -0.046257492 0.025821034 -0.06425585 -0.007020903
000060 9d 2e ca bd 5f ea c3 3c 91 6d 6f bd db 34 af bd
       -0.09872172 0.023915468 -0.0584541 -0.08555003
000070 29 97 8b 3d a0 52 82 bd 65 5c 7d bb cf 1a bd bd
       0.06815941 -0.06363416 -0.0038659808 -0.09233629

context_transformer_0/bottleneck_input/norm/mul f4 [32, 32]
000000 4d 69 67 be a7 64 0c 3d 05 5e b7 3d 0d 49 21 3e
       -0.22598763 0.034275677 0.0895348 0.15750523
000010 b1 c5 8d 3d d9 db d2 bd 5a f6 ab 3e 82 1b 6c bd
       0.06922472 -0.10295839 0.3358639 -0.05764342
000020 d8 07 01 3e 58 5c 5a 3e 55 42 6e bc 9d e4 ca 3c
       0.12600648 0.21324289 -0.014542182 0.024767214
000030 ed 38 c1 bd db 61 e0 3d 51 f9 b5 3d 8b b6 8e 3d
       -0.09434686 0.109561644 0.08885444 0.06968411
000040 83 2b 19 3e 86 10 63 3e 38 96 7b be 98 ca 93 3e
       0.14958005 0.22174272 -0.24569023 0.28865504
000050 c4 13 05 bd c0 9e ce bd 69 57 35 3d 99 5c e4 3d
       -0.032489553 -0.10088873 0.044272814 0.11150474
000060 98 e1 b1 bd e7 51 af 3e 83 48 1b 3d 89 c0 23 3b
       -0.08685607 0.34242174 0.03791095 0.0024986586
000070 60 3a 2c 3c ce cd 55 be c9 a5 01 3e 1a 96 b6 bd
       0.010511965 -0.2087929 0.12660898 -0.08915348
000080 1c 2f 62 be ee ea ae bd 69 cc 47 3e 6c 0e 14 bd
       -0.22088283 -0.08540903 0.1951157 -0.036146566
000090 99 0e e8 3d 92 3a 77 3d 6d f0 28 3f 24 31 03 3e
       0.11330909 0.06035859 0.6599186 0.12811714
0000a0 27 90 1c be c4 58 aa 3e 44 32 a2 3b 16 70 86 3c
       -0.15289365 0.33270848 0.00494984 0.016410869
0000b0 df 9e 04 3d 7a 49 21 3f 6f 8d c5 3d 8e 4b c4 3e
       0.032378074 0.6300274 0.09646117 0.38338894
0000c0 0d 9a 0f 3e 92 93 57 be b1 30 a2 be ea 6c c9 bd
       0.1402361 -0.21052387 -0.31677774 -0.09835227
0000d0 7a 2f 0e 3e d3 e3 6e 3c 45 70 42 3e 53 a1 b5 bd
       0.13885298 0.014580685 0.1898814 -0.08868661
0000e0 e3 ef a8 3e f2 11 b4 3c 64 c4 80 3d c1 85 36 3d
       0.3299552 0.021981213 0.062874585 0.04456115
0000f0 ab a7 48 bd 1d cd 0d bf e0 fc fb 3d 8d 2a 27 3e
       -0.048988026 -0.55391103 0.123040915 0.16324826
000100 f8 aa 31 3e 87 1e 33 3e 05 89 cc bc b0 aa c3 be
       0.17350376 0.17492114 -0.02496768 -0.38216162
000110 a4 bb 60 3e 07 cd 35 3f aa fa f3 3e 39 fc 00 3e
       0.21946579 0.7101597 0.4765218 0.12596215
000120 1e 88 15 be 5f 04 bd 3e 1b f0 dd be 82 1e c1 3e
       -0.14602706 0.36917397 -0.43347248 0.37718588
000130 e2 de 4a 3d 66 d7 8f be 68 84 86 3d 45 94 67 be
       0.049528964 -0.28094023 0.06568223 -0.22615154
000140 90 33 98 bd 7c 2b 9a 3e 3e 0c 9f bf d6 97 b9 3e
       -0.0743171 0.301113 -1.2425611 0.36248654
000150 79 c4 9e be ba bc c8 be df 26 0f bf bb ec b3 3e
       -0.31009272 -0.39206487 -0.5591869 0.3514155
000160 fb 50 03 3e c8 32 95 3e 16 14 6b 3e 90 ba ed 3c
       0.1282386 0.29140306 0.22956881 0.029019624
000170 16 b9 dd be a2 99 ae be 78 75 2a 3e a0 43 e0 3d
       -0.43305272 -0.34101588 0.16646373 0.109503984
000180 1f 22 82 be 72 2b d8 3d 7e 42 84 bd 08 c6 87 be
       -0.25416657 0.105551615 -0.06457995 -0.26518273
000190 60 6c 0f be eb 95 9a bd 69 b3 42 bf 1a 6e 86 3b
       -0.14006186 -0.07548126 -0.7605501 0.0041024806
0001a0 b4 ff e1 bd fe ca b0 be 6d 57 f8 be 60 b9 b8 bd
       -0.110350996 -0.3452987 -0.485042 -0.090197325
0001b0 55 61 24 bc 92 b1 12 be 94 d4 bb bc 8d 61 47 be
       -0.010032971 -0.1432555 -0.022928514 -0.19470806
0001c0 8a 43 0d 3e 61 7a 3b 3e d0 f1 06 be 0e 0c 4e be
       0.13795295 0.18308403 -0.13178182 -0.20121786
0001d0 0e 08 89 bd 64 22 ac b9 8f 6f 0b be a5 2b 84 bd
       -0.066909894 -0.0003283202 -0.13616775 -0.06453637
0001e0 ef 7b 97 3d 94 78 dd 3c f9 d6 97 3e 54 e5 a3 3e
       0.07396685 0.027035035 0.296562 0.320109
0001f0 f0 88 61 be 1c 56 35 be 64 47 a3 be d8 61 b6 bc
       -0.22024894 -0.1770863 -0.31890404 -0.022263452
000200 98 6d 75 3e b9 9e 77 bc 36 4a b9 3d 00 08 a3 3e
       0.23967588 -0.015113526 0.09047358 0.3184204
000210 99 14 04 be 4f b7 19 bd 42 4a b4 be 21 57 e8 bb
       -0.12898482 -0.037528332 -0.35212904 -0.0070904647
000220 33 de 99 3d f7 e3 c4 3e 58 07 b3 3d 33 00 42 3e
       0.07513084 0.38455173 0.08741635 0.18945388
000230 b6 fd 8b 3c cb fc 62 3d 94 49 74 3e fc a1 80 3e
       0.017088752 0.055416863 0.23856193 0.25123584
000240 db 7c e6 bd b2 2f 46 be c8 97 89 3e 48 87 b3 bd
       -0.11254283 -0.19354132 0.26873612 -0.08766037
000250 27 9f 96 bd 59 5b 4b 3e 02 82 5d 3d 97 6c 20 bd
       -0.07354575 0.19859065 0.054079063 -0.03916606
000260 39 3e 1b be 92 04 07 bd 2b b0 6f 3e 05 c9 e4 bd
       -0.15160455 -0.032963343 0.23407046 -0.11171154
000270 aa 71 e4 bb 65 5b 81 3e 98 30 b2 be c9 1d 37 be
       -0.0069715576 0.2526504 -0.348027 -0.17882456
000280 9b da e9 3d 83 42 c6 3d 6b d4 20 be 8c 4d 10 bd
       0.11418649 0.09680655 -0.15706031 -0.035230204
000290 af 0c b3 3d 2c 1b a1 3d a0 a0 8d be e6 93 fc 3d
       0.087426536 0.07866511 -0.2766161 0.12332897
0002a0 37 26 93 3e 18 65 79 3c ac 2f 23 bd 77 33 9c 3d
       0.28740093 0.015221857 -0.039840385 0.07627004
0002b0 12 8b 2f 3e 0d d2 42 3e fa 61 45 3e 8d 49 81 3e
       0.17142895 0.1902544 0.19275656 0.25251427
0002c0 66 f8 1c 3d 34 55 34 3d 4a 76 05 3c bf e9 09 be
       0.03832283 0.04402657 0.008145878 -0.13468073
0002d0 5a 83 4d 3e c7 7e 19 bc 83 91 2f bc 72 fc 31 be
       0.20069638 -0.009368605 -0.010715845 -0.17381456
0002e0 e7 1e 1a 3e e8 91 f7 bc f9 4e 8b bc 66 9b 36 3e
       0.15050851 -0.03022094 -0.01700543 0.17832717
0002f0 83 96 9a be 19 59 45 bd 05 67 1a 3d 81 bf 00 bd
       -0.30192956 -0.048180673 0.037695903 -0.031432632
000300 2f 80 09 3e 5e 40 67 be a6 e5 2d be 19 d4 f1 3d
       0.13427804 -0.22583148 -0.16982135 0.118080325
000310 e3 93 0c bf 23 ec 8e be d8 cc e8 3e ef 34 48 3d
       -0.5491316 -0.27914533 0.45468783 0.048878606
000320 7e db 25 be fe ae 30 bd c7 02 f9 3e 6f f6 fd be
       -0.16197011 -0.043135636 0.4863493 -0.49602076
000330 74 81 55 3e e4 20 02 3e 4f 93 a3 be 16 ce cd bd
       0.20850164 0.1270786 -0.31948325 -0.100490734
000340 0d 15 cb 3e 7d a3 ec be 0d be bb 3e bf 33 be be
       0.39664498 -0.46218482 0.36668435 -0.37148854
000350 2d ff b3 bd fc d8 04 bf 3a b4 1d bc 4c 8a 0f be
       -0.08788905 -0.5189359 -0.009625489 -0.140176
000360 5f 39 e6 be c7 44 b5 be 43 a3 b7 be 0b f5 55 be
       -0.44965646 -0.35404035 -0.35866746 -0.20894258
000370 59 67 35 3d b6 1c 0c 3d 5a 27 00 3e a4 f5 0d 3e
       0.044288013 0.03420707 0.12515011 0.13863236
000380 21 84 e4 bd 06 7c 7f be 08 3e 5c 3e cb a9 21 bf
       -0.11158014 -0.24949655 0.21508038 -0.6314971
000390 3a 9b 89 3e 82 88 ef be b5 78 b9 3e 47 93 e1 3e
       0.2687624 -0.46783835 0.36224905 0.44057676
0003a0 50 93 e1 bd 50 b7 c8 be 75 95 e1 be d1 c4 c9 be
       -0.11014426 -0.39202356 -0.4405934 -0.39407972
0003b0 52 f2 46 3e a9 ff 22 3f b2 74 06 bf 5b 45 8b be
       0.19428375 0.63671356 -0.5252181 -0.27201352
0003c0 82 85 c6 3d a2 50 d7 3d 10 1f 4d be 80 ab 52 bd
       0.09693433 0.10513426 -0.2003138 -0.051433086
0003d0 ac 7a 82 be 26 4d 17 bf 95 7e 14 bf 8a a3 96 3c
       -0.25484216 -0.59102094 -0.5800565 0.018388528
0003e0 3d ab 8b 3e 4a a9 10 3d ab dd 9f bc d1 bd 38 3e
       0.27279082 0.035317697 -0.01951488 0.18041159
0003f0 67 fc e8 be e3 b8 8c bd 6b 8d a9 be 01 51 36 3e
       -0.45505068 -0.06871202 -0.33115706 0.17804338

context_transformer_0/kq_shared_bottleneck/norm/mul;context_transformer_0/kq_shared_bottleneck/norm/add;context_transformer_0/attention/key/einsum/Einsum;context_transformer_0/attention/key/add;context_transformer_0/attention/value/einsum/Einsum;context_transformer_0/attention/key/add/ReadVariableOp/resource f4 [32]
000000 be 97 a5 bd 60 01 97 3d bb 0c c8 3d 07 a5 36 3d
       -0.08085583 0.07373309 0.09768053 0.044590976
000010 54 39 66 3b 89 bd 88 3d 13 19 a8 bd 0d b3 87 bd
       0.0035129385 0.06676776 -0.082079075 -0.06625948
000020 90 7b 85 3b cf de 82 3c 99 f2 59 3e f2 7f 0b bd
       0.0040735677 0.015975384 0.2128395 -0.034057565
000030 15 dd 2e 3c 0d 3e 9c 3d 0d 99 31 bd 44 d5 88 3b
       0.010672827 0.07629023 -0.04335885 0.004175814
000040 7f ed a9 bc de 6c 08 be ac fa 90 3c ff ed 86 3d
       -0.02074313 -0.1332278 0.017697655 0.06588363
000050 9c 7c 03 3d 55 c5 73 3c f2 21 1d 3d 92 9b b8 3c
       0.03210126 0.014878591 0.03836245 0.02253512
000060 57 d2 01 be 91 d9 31 3b 86 4e ac bc f1 35 67 3e
       -0.12677895 0.0027137736 -0.021033537 0.22579171
000070 cd ed 54 3e 87 02 d5 3c 57 89 10 bd 76 81 99 3c
       0.20793839 0.026002182 -0.035287227 0.01873849

context_transformer_0/kq_shared_bottleneck/norm/mul;context_transformer_0/kq_shared_bottleneck/norm/add;context_transformer_0/attention/key/einsum/Einsum;context_transformer_0/attention/key/add;context_transformer_0/attention/value/einsum/Einsum;context_transformer_0/attention/key/add/ReadVariableOp/resource1 f4 [32, 32]
000000 60 5f 98 bd ad bf fb bc d7 35 87 bc d4 be 8c 3e
       -0.07440066 -0.030731047 -0.016505165 0.2748934
000010 40 78 09 3d 78 91 84 bd 29 61 1a be 2f 6d c1 bc
       0.033561945 -0.064730585 -0.15076126 -0.023611633
000020 92 10 22 3e cf fd 02 3e a6 52 90 be e3 ab 10 3e
       0.15826634 0.12792133 -0.28188056 0.1412807
000030 9b 77 c1 bd 47 a9 a7 3d f5 9e 4e be 7d f7 97 3e
       -0.09446641 0.08186584 -0.20177825 0.29681006
000040 6d 64 13 3c 5a 90 c0 bd 69 10 20 be 7a 3c 0b be
       0.008996111 -0.09402533 -0.1563126 -0.13597289
000050 5c 08 36 bd fa c4 00 3e f6 82 03 be ba 63 c8 bd
       -0.044441566 0.1257514 -0.12842926 -0.09784646
000060 3d ec 8b 3d 21 17 10 bd 68 a2 62 be 5d 1f 02 3e
       0.06832168 -0.035178307 -0.22132266 0.12707277
000070 35 19 a1 3c 8c f4 bd 3d 5b 57 9b 3d db 84 be 3d
       0.01966534 0.09275159 0.07585021 0.09302684
000080 09 ed e6 3d e3 7b 63 be 4a 50 18 3e 79 6b f0 be
       0.112756796 -0.22215228 0.14874378 -0.46956995
000090 d9 a8 e9 3e 25 22 81 bd 49 1c dd 3e 47 b7 69 3d
       0.45636633 -0.06305341 0.43185642 0.057059553
0000a0 37 44 3e be c9 3a 8c be 5b 01 99 be d7 69 cd 3e
       -0.1858071 -0.273886 -0.29883847 0.40119812
0000b0 ba 86 0b 3e 7d 63 1e be 29 60 d8 3d a8 96 3c 3e
       0.13625613 -0.1546764 0.10565216 0.18416846
0000c0 e2 7b 70 bd aa 22 13 3e 73 b0 31 3e c0 10 78 3e
       -0.058711894 0.14368692 0.17352466 0.2422514
0000d0 83 61 91 3e 86 94 ce bd a6 d2 36 3e f8 c8 36 bd
       0.28394708 -0.10086922 0.17853794 -0.044625252
0000e0 8f 53 18 bd ea b2 1f bd 54 ed ab be b0 b3 16 3f
       -0.037189063 -0.038988985 -0.33579504 0.5886793
0000f0 c0 14 eb 3d 1f b2 40 3e b1 16 94 be 70 8c 1c 3d
       0.11478567 0.18817948 -0.28923562 0.03821987
000100 48 c7 da 3d 2b 8e 70 bb fa 1a 30 3d da 6a 6d be
       0.10682541 -0.0036705832 0.042994477 -0.23185292
000110 67 20 cb bc aa 5a ef 3d e1 c0 81 3d 80 6f 3d 3d
       -0.024795724 0.11687215 0.06335617 0.046248913
000120 04 a0 47 be fc 65 39 be eb 43 b6 3e 1b 9e 05 be
       -0.19494635 -0.1810531 0.35598692 -0.13048594
000130 fb 2a 19 3e b7 95 f0 bd af b0 6c 3e 87 2c b9 be
       0.14957802 -0.11747306 0.23114274 -0.36166784
000140 9f d7 57 3d 0b 1f e4 3d 40 e2 2f 3e 11 2e 19 3e
       0.052695867 0.111387335 0.17176151 0.14958979
000150 48 39 ef bc 16 d2 2d be 94 1e 53 3e 0b f9 e2 3d
       -0.029202119 -0.16974673 0.20617133 0.110826574
000160 7b 76 0f be 2b fb 08 bc 41 56 8e 3e 1b 12 58 be
       -0.1401004 -0.008360664 0.27800182 -0.21100657
000170 84 8b 95 bd a0 72 41 bd 3e 63 0f bc 47 1d 03 be
       -0.07302001 -0.047228456 -0.0087516885 -0.12804137
000180 42 46 74 3d 42 72 03 3a 3e 7b 3c bb 77 1e 92 be
       0.059637316 0.0005014279 -0.0028759982 -0.28538868
000190 49 c4 27 bd 6a 60 0f 3c f5 79 5a 3e 50 d8 47 bc
       -0.040958676 0.008751014 0.21335585 -0.012197569
0001a0 35 ba eb bd 51 c4 02 be 61 28 5a 3e f9 0c bc bd
       -0.115101255 -0.12770201 0.21304466 -0.09182162
0001b0 ab f3 9b 3d 3b ca 52 bd 57 84 4a 3e 4a 36 7d be
       0.07614835 -0.051462393 0.19777046 -0.24727741
0001c0 a1 65 6e bc f2 85 9c 3d 73 b0 01 3e 31 cf d6 3d
       -0.014550597 0.076427355 0.12664966 0.104887374
0001d0 91 a9 c7 3d f3 18 8a bd 9b c4 b6 3d 3b 0e 81 3d
       0.09749139 -0.0674304 0.08924218 0.06301542
0001e0 45 7a 1e 3b b1 40 1c 3d d3 20 fe 3d 10 6f 84 bd
       0.0024181765 0.038147632 0.124086045 -0.06466496
0001f0 41 7c 87 3c 58 a7 cc bd 5b be 1a be e4 57 4e bd
       0.016538741 -0.09992856 -0.15111677 -0.050376788
000200 43 52 4b 3d c6 d4 91 bd c8 8b 43 bb 00 f1 a2 be
       0.049638998 -0.071206614 -0.0029837955 -0.31824493
000210 7a eb ac bd 28 c9 4c 3b e0 04 5b 3e 7d c7 83 bc
       -0.08443351 0.0031247828 0.21388578 -0.016086334
000220 73 24 e3 bd 3e 0d bb bd 5c ee 21 3e f1 30 db bd
       -0.110909365 -0.09133385 0.15813583 -0.10702694
000230 97 56 89 3d 73 d6 c9 bb 32 04 35 3e 7d 78 98 be
       0.06705969 -0.0061595975 0.17677382 -0.29779425
000240 6f ae 4c bd e6 d7 87 3d 6a 2d db 3d 66 2a 3b 3d
       -0.04997104 0.06632976 0.107020214 0.04569473
000250 c0 dd 32 3e fd 11 97 bd b4 78 23 3c a0 93 37 3d
       0.17467403 -0.07376478 0.009977508 0.04481852
000260 ee b7 4c 3d 10 25 bc 3c fa 5f 97 3d a5 9d 1e bb
       0.049980097 0.022966892 0.07391353 -0.002420285
000270 12 b7 02 3d 52 2e 7f bd ef 5f 30 be 62 77 26 bd
       0.03191287 -0.062300034 -0.17224096 -0.040641196
000280 ab 40 d3 3c e9 41 fc bd 94 11 02 3e d8 f5 83 be
       0.025787672 -0.12317259 0.12702018 -0.257735
000290 32 b5 e1 3e 0a 8e 77 bd f8 4d b3 3e 1e 63 13 3d
       0.44083554 -0.060438193 0.35020423 0.035983197
0002a0 20 41 1b be 59 5a 4d be ee df 72 be f6 78 d2 3e
       -0.15161562 -0.20053996 -0.23718235 0.4110791
0002b0 37 cb cb 3d 04 99 04 be f4 ab 2b 3e 9e fa 24 3e
       0.099508695 -0.12948996 0.16764814 0.16111228
0002c0 8e ee 93 bd c9 3a b4 3d c3 d3 d8 3d 0d f6 16 3e
       -0.07223235 0.08800275 0.10587265 0.14742298
0002d0 54 b6 41 3e 81 97 6d bd 28 b1 2f 3e 89 d7 a3 bd
       0.18917209 -0.058005814 0.17157423 -0.080000944
0002e0 b6 9d bb bd 18 7a 68 bc 88 a4 61 be 90 98 e8 3e
       -0.0916094 -0.014189266 -0.2203542 0.45428896
0002f0 0c 28 08 3e 03 a5 47 3e a1 6e 5a be d1 be 68 3d
       0.13296527 0.1949654 -0.21331264 0.0568226
000300 43 60 a8 bd e9 da 0b 3c 22 7e a9 bc 47 f8 80 3e
       -0.082214855 0.008536079 -0.020690028 0.2518942
000310 a5 24 fe 3c 7b cf bf bd d8 2f c2 bd cf 83 19 bd
       0.031023333 -0.09365746 -0.09481782 -0.037479218
000320 31 a8 35 3e 5a 3f 25 3e f0 9b 9c be ff f9 ea 3d
       0.17739941 0.16137448 -0.3058772 0.11473464
000330 84 a6 03 be 44 45 e5 3d 77 25 6f be e8 d1 ad 3e
       -0.1285649 0.11194852 -0.23354135 0.33949208
000340 b3 a7 88 bc a5 bb e2 bd 96 24 3f be 9c fb 3a be
       -0.016681528 -0.110709466 -0.186663 -0.18260044
000350 0c be 14 3d c5 b9 1f 3e b0 e5 34 be f3 14 c3 bd
       0.036314055 0.15598209 -0.17665744 -0.0952548
000360 34 99 d8 3d b8 69 fb 3b 11 6a 78 be a5 19 33 3e
       0.10576096 0.0076725148 -0.24259211 0.17490251
000370 d6 fb 76 3d ce da 82 3d 9f ae 3b 3d 2c 24 e6 3d
       0.060298763 0.0638939 0.04582083 0.11237368
000380 be 03 9e bd bf 4a e6 ba e9 1a 0b bd 0a 26 8a 3e
       -0.077155575 -0.0017569883 -0.03396121 0.26982147
000390 14 5f 1f 3d f9 50 b3 bd 75 4c 17 be 41 a0 f4 bb
       0.038909033 -0.08755679 -0.1477526 -0.007465393
0003a0 89 1c 22 3e 97 d4 17 3e 78 ee 8e be 21 5d da 3d
       0.15831198 0.1482719 -0.27916312 0.10662294
0003b0 4a dc c9 bd 5b ea bb 3d d4 72 77 be 6c 85 91 3e
       -0.0985647 0.09175559 -0.24164897 0.28422105
0003c0 2e d9 da bc d4 13 c2 bd f4 dd 07 be 28 45 10 be
       -0.026714887 -0.09476438 -0.13268262 -0.14088881
0003d0 df d9 ab bc cc 8d 08 3e 4d 29 e6 bd 4f 8b c5 bd
       -0.020977912 0.13335341 -0.11238346 -0.09645712
0003e0 e4 b4 86 3d ae d4 9c bc 2c 9f 4b be 61 4e 2c 3e
       0.06577471 -0.019144382 -0.19884938 0.16826774
0003f0 ec c0 21 3d f4 90 ad 3d 7b a5 a2 3d ea 9e c8 3d
       0.039490625 0.08474913 0.07941719 0.097959355

context_transformer_0/kq_shared_bottleneck/norm/mul;context_transformer_0/kq_shared_bottleneck/norm/add;context_transformer_0/attention/query/einsum/Einsum;context_transformer_0/attention/query/add;context_transformer_0/attention/value/einsum/Einsum;context_transformer_0/attention/query/add/ReadVariableOp/resource;context_transformer_0/attention/Mul;context_transformer_0/attention/Mul/y f4 [32]
000000 5a a5 fc bd e4 46 60 3e 03 72 1f 3e a1 08 bc 3d
       -0.12336226 0.21902043 0.15570836 0.09181333
000010 f9 1e 82 3d 47 0d 29 3e 83 26 1c be a6 58 04 be
       0.06353564 0.16508971 -0.15249066 -0.12924442
000020 29 2d 28 3e 97 19 49 3e c7 3f 51 3d 69 09 35 be
       0.16423477 0.19638668 0.051086213 -0.17679371
000030 2a 36 4a 3e ef 61 cc bd 8c ae 48 be b4 7f 4c 3e
       0.19747224 -0.09979617 -0.19597834 0.1997059
000040 5e dd ca bd 21 a6 62 bd 84 2f 8f 3d 5a 14 be 3d
       -0.09905504 -0.055334214 0.06991485 0.092812255
000050 57 aa 9a 3d b5 56 58 be 87 a3 93 3d 22 63 e2 3d
       0.07552021 -0.21126826 0.07208925 0.11054064
000060 01 8c 40 be 87 14 ba bd f8 86 cf bd db f1 c1 3c
       -0.18803407 -0.090859465 -0.10133165 0.023674896
000070 03 b2 38 3d b2 9f ae bd eb e8 c6 3d f2 ce bf bd
       0.04509164 -0.08526553 0.09712394 -0.093656436

context_transformer_0/kq_shared_bottleneck/norm/mul;context_transformer_0/kq_shared_bottleneck/norm/add;context_transformer_0/attention/query/einsum/Einsum;context_transformer_0/attention/query/add;context_transformer_0/attention/value/einsum/Einsum;context_transformer_0/attention/query/add/ReadVariableOp/resource;context_transformer_0/attention/Mul;context_transformer_0/attention/Mul/y1 f4 [32, 32]
000000 a7 a7 c7 3b 0f 3c 96 3c b3 da 5f 3d aa 63 07 3e
       0.0060929838 0.018339185 0.054651927 0.13221613
000010 83 a8 3c 3d 44 66 a2 bd 83 ce c7 bc 19 5f 0b 3d
       0.046059143 -0.07929662 -0.024390465 0.03402624
000020 6d 04 e8 bb e6 63 e1 bc 6d 57 95 3d 13 0a 73 3d
       -0.0070806057 -0.027513456 0.07292066 0.05933578
000030 e9 d3 04 3b 06 18 41 bd 5b cf 87 3d bd 38 3c 3d
       0.002026791 -0.04714205 0.06631347 0.045952547
000040 36 36 28 3c 3a 54 3c 3d 11 c2 e1 3b f1 34 61 3c
       0.010266831 0.045978762 0.0068895896 0.013745532
000050 24 4a 60 bd e1 cb 47 bc 5f d6 71 bd 05 72 a3 bb
       -0.054758206 -0.012194605 -0.05904233 -0.0049879574
000060 06 de 9e bc 38 9c 06 bd af 2d e1 3c 78 13 43 bd
       -0.019392978 -0.032863826 0.027487604 -0.04762599
000070 a3 b6 01 3c db 9d 73 bc 5f 30 5c 3c eb d4 c2 ba
       0.007917079 -0.014869179 0.013439267 -0.001486448
000080 5f 75 9e bc 97 98 2f 3d 36 7b 9d bb 28 e5 ef 3d
       -0.019343076 0.04287013 -0.0048059477 0.1171363
000090 f1 ba c7 3d 23 e5 1f 3e 64 32 89 bc bc c1 28 bb
       0.09752453 0.15614752 -0.016747661 -0.002575024
0000a0 c3 84 7e bc 83 bd 36 3b 83 bf b8 3d 6b d8 c4 3d
       -0.015534583 0.0027883954 0.09020903 0.09611591
0000b0 ed fc b8 3d be 2b 97 bc a8 f8 a3 3b 4a 16 bd bc
       0.09032617 -0.018453475 0.0050040074 -0.023081917
0000c0 bf 81 2e ba d3 f8 3c 3b 8d 8f 3a bc 79 f9 3a 3d
       -0.0006656907 0.0028834834 -0.011386764 0.045648072
0000d0 54 bf 65 bd 54 26 a1 bd a7 7b 73 3e 3b 3c 20 bc
       -0.056090668 -0.07868639 0.23777638 -0.009779985
0000e0 ca d7 5b be 7c d7 9f bc a4 1a 31 3d 83 2d c3 bc
       -0.21469036 -0.01951193 0.043238297 -0.023825413
0000f0 c5 ae 9d 3b 68 54 eb 3d 4a a5 bc 3d ea da e4 bb
       0.004812094 0.114907086 0.09211214 -0.0069841044
000100 a7 68 23 bc 52 7b 09 3a 30 54 83 bd bc cb 24 be
       -0.0099736815 0.00052445114 -0.06412542 -0.16093343
000110 f9 36 82 bd e7 58 97 3d a2 fb 66 3d 6d 39 3c bd
       -0.063581415 0.07390004 0.05639232 -0.045953203
000120 77 8d 5e 3c 20 e5 10 3d ec 8b c0 bd fe df 9d bd
       0.013583533 0.03537476 -0.09401688 -0.07708739
000130 a3 0f 8f bc 92 0e 75 3d ee 0f c4 bd 39 34 44 bc
       -0.01746351 0.05982835 -0.09573351 -0.0119753415
000140 bd dd 1b bd 8f ef 6d bd 14 a8 09 bd b5 fa 88 bc
       -0.038053263 -0.05808979 -0.033607557 -0.016721109
000150 ee ae 9e 3d 58 26 8a 3c cd 92 5a 3d 5a 43 2d bc
       0.07748209 0.016863987 0.053362656 -0.01057514
000160 cb 3b 1e 3d e8 ec 16 3d 27 32 2a bd ca e3 83 3d
       0.03863124 0.036847025 -0.041551735 0.06439932
000170 98 f7 9d 3c 29 89 96 bc cf 84 27 bd c3 6d 6b 3c
       0.019283101 -0.01837595 -0.04089814 0.014369431
000180 0a 15 7d 3c 9c 36 f4 bc 7b 4d 4b bd a4 60 c6 bd
       0.015446911 -0.029811196 -0.049634438 -0.096864015
000190 15 6d 08 bd 83 ef d2 3d c2 e4 24 bc bb 47 82 bc
       -0.033307154 0.102995895 -0.010064306 -0.015903344
0001a0 28 8d b0 3c 28 69 bf 3c 4d 6e 4d bd bd 0e ff bc
       0.021551684 0.023365572 -0.05015402 -0.031134957
0001b0 f3 d2 5c 3c 7f 20 2a 3d cf ef 29 bd d7 89 a8 bd
       0.013478029 0.041534897 -0.041488465 -0.08229416
0001c0 73 fe 81 bc 96 05 24 bd ff 29 6f bc 8f d0 86 bc
       -0.015868401 -0.04004439 -0.014597415 -0.01645687
0001d0 0d 6e 0b 3d e6 b7 e8 3b eb 01 3c 3d c4 d5 0a 3c
       0.0340405 0.0071020005 0.045900267 0.008473817
0001e0 3b ef 3e bb 63 5d 56 3c 1f 28 e6 bb 2f 57 04 3d
       -0.0029134292 0.013083789 -0.007023826 0.032309707
0001f0 67 c0 c3 bc 73 4a d9 3c 1e 68 71 3c 62 35 cb bb
       -0.023895456 0.026524758 0.014734296 -0.006201432
000200 05 e1 90 3a 60 14 1f bd 82 dd 6d bd 36 93 8b bd
       0.0011053389 -0.03883779 -0.058072574 -0.06815188
000210 43 d2 87 bc b9 56 bf 3d 93 6f 23 bd ad a9 c3 bc
       -0.016579753 0.09342713 -0.039901327 -0.023884619
000220 bc 5a e2 3c 75 1a 16 3d 8c 30 17 bd ea 6d c2 bc
       0.027631156 0.036646325 -0.036911532 -0.023734052
000230 4d 57 0b 3c 5c 62 42 3d 13 05 0c bd a5 8f 01 be
       0.008504701 0.047457084 -0.034184527 -0.12652452
000240 c1 d1 16 bc a4 dc 41 bd f5 9c 72 bc 87 d9 93 bc
       -0.009205283 -0.04732956 -0.014807929 -0.018048061
000250 0a ed 00 3d 5d 7b 6c 3c 86 42 ec 3c 01 f7 72 3c
       0.031476058 0.014433709 0.028840315 0.014829398
000260 d2 ab 62 bb e9 11 c9 3c 9c e8 71 3c 9f 0b 8c 3b
       -0.0034587276 0.024544673 0.014764931 0.0042738463
000270 71 c1 d5 bc 5e 0d 5e 3d a0 83 ab 3c 0c cf 80 bc
       -0.026093217 0.054211967 0.020936787 -0.015723728
000280 08 f6 9e bc 32 f1 42 3d f6 42 9c bb 23 81 f6 3d
       -0.019404426 0.047593303 -0.0047687246 0.120363496
000290 df 6c e6 3d 57 3d ae 3d b6 66 6e bc 38 fd c9 3b
       0.11251234 0.085077934 -0.014550855 0.006164219
0002a0 e8 8c 81 bb 3c 48 b7 3a 4d 84 86 3d ca b8 f3 3d
       -0.003953565 0.001398332 0.06568203 0.1190048
0002b0 f8 e5 76 3d e9 bc fb bc 69 17 21 3c 38 44 ac 3c
       0.06027791 -0.030729728 0.009832242 0.021028623
0002c0 ae d1 89 bc 3c 36 99 3a ab 3f bc bc 9c 42 2f 3d
       -0.016823616 0.0011689137 -0.022979578 0.042788133
0002d0 45 20 60 bd a0 58 80 bd 4d 10 40 3e 0e 36 2f bd
       -0.054718275 -0.06266904 0.18756218 -0.04277616
0002e0 a8 51 3f be 4b be c4 bc 43 d8 09 3c 15 e4 ab 3b
       -0.18683493 -0.02401652 0.008413377 0.0052456954
0002f0 9a 10 ea 3c 40 23 d0 3d 1e 58 95 3d 18 d2 d8 3c
       0.02857237 0.101629734 0.07292198 0.026467368
000300 f2 55 86 3c ce 0d 50 bb d0 1e 82 3d 65 dc 0a 3e
       0.016398404 -0.003174651 0.06353533 0.13560636
000310 4d e9 56 3d 0f 0b b0 bd b7 e0 5b bd af 9b 10 3d
       0.052468587 -0.08595859 -0.0536811 0.03530472
000320 cf 84 5a bc 63 a3 ce bc d9 4d 9a 3d 96 00 75 3d
       -0.013337328 -0.025224393 0.075343795 0.059815012
000330 65 af f4 3b 39 46 63 bd 4d 73 ba 3d ec a8 16 3d
       0.0074671977 -0.05548689 0.09104023 0.03678219
000340 36 18 ee 3c 7a eb 52 3d ca ee 05 3d 96 ed 87 3c
       0.029064279 0.0514941 0.03269843 0.016592782
000350 7b 4b a4 bd ea 28 5f bc 33 1d 6d bd 34 2d db 3b
       -0.08022209 -0.0136205945 -0.057889175 0.0066887382
000360 4d 47 c0 bc 35 84 10 bd e9 63 24 3d e0 2d 92 bd
       -0.023471499 -0.035282332 0.040134344 -0.07137656
000370 4e 1c 5f bc b7 4e b2 3a 2a 6b 15 3d 26 bd be bb
       -0.013617588 0.0013603781 0.036479153 -0.005820888
000380 93 4b 1a bc f0 b2 a0 3c 00 43 70 3d 69 3c 01 3e
       -0.009417432 0.019616574 0.058657646 0.12620701
000390 8b 51 2f 3d 27 a6 aa bd 8e 2b 18 bd db c9 05 3d
       0.042802375 -0.08332472 -0.037150912 0.032663208
0003a0 84 b7 6b bc 18 d3 9f bc 05 e3 b1 3d 49 8f 68 3d
       -0.014387015 -0.019509837 0.08685879 0.056777272
0003b0 bc 15 2d 3b 6d e4 60 bd 57 0d 8e 3d ea 30 50 3d
       0.002641066 -0.054905344 0.06936138 0.050827898
0003c0 ed ca 8c 3c 62 ac 2f 3d fd 43 ae 3c 06 4c 8e 3b
       0.017186606 0.042889006 0.021272654 0.004342559
0003d0 b5 f7 6a bd 0b a8 c1 bb bb ae 81 bd 7e a6 24 bb
       -0.057365138 -0.005909925 -0.06332155 -0.002512365
0003e0 19 10 7e bc 1b c1 da bc 47 b2 b4 3c f8 64 56 bd
       -0.015506768 -0.026703408 0.022057666 -0.052342385
0003f0 ab 66 11 3a 42 1b a5 3a c0 d2 4e 3c 57 06 87 3b
       0.000554661 0.0012596624 0.012623489 0.004120629

context_transformer_0/ffn_layer_0/intermediate_dense/einsum/Einsum;context_transformer_0/ffn_layer_0/intermediate_dense/Relu;context_transformer_0/ffn_layer_0/intermediate_dense/add f4 [32]
000000 e1 7e e8 be e2 b8 9f be 98 98 ca be 97 43 9c be
       -0.454093 -0.31195742 -0.39569545 -0.30520317
000010 fa 65 f5 bd 0e 44 98 be 2a 3e 15 bf 9c d7 a4 be
       -0.11982341 -0.29739422 -0.5829798 -0.32195747
000020 b5 e6 71 be 84 7e c2 be ca 85 ba be 12 84 97 be
       -0.23623164 -0.3798715 -0.36430198 -0.2959295
000030 47 48 7b be 4e 81 40 be 54 22 da be 86 c8 a7 be
       -0.2453929 -0.18799326 -0.42604315 -0.32770175
000040 25 37 ed be 10 2e b3 be f5 0f 3e be fb bf 05 bf
       -0.46331134 -0.3499608 -0.18560775 -0.52246064
000050 da 16 35 be 85 4f 9f be 4b 92 af be 84 d9 23 be
       -0.17684498 -0.31115356 -0.342913 -0.16000944
000060 aa 16 94 be ee 3a 66 be 7c d5 a1 be 9c f9 8d be
       -0.2892354 -0.22483417 -0.31608188 -0.277295
000070 76 45 df be 73 c4 6b be 90 bf be be 71 31 d4 be
       -0.43607682 -0.23024158 -0.37255526 -0.4144397

context_transformer_0/attention/norm/mul;context_transformer_0/attention/norm/add;context_transformer_0/ffn_layer_0/intermediate_dense/einsum/Einsum;context_transformer_0/ffn_layer_0/intermediate_dense/Relu;context_transformer_0/ffn_layer_0/intermediate_dense/add f4 [32, 32]
000000 eb 0f 2d be 02 f7 4b bd cc e0 73 be 6f 9e da bd
       -0.16900603 -0.049796112 -0.23816222 -0.1067475
000010 7e 24 51 3e 45 d1 a2 bd 6f 06 dc bd f1 8a e1 3d
       0.20424077 -0.07950071 -0.107434146 0.11012829
000020 88 d4 bc be 0d 3c 9a bd cc d4 15 be ba 59 cd bd
       -0.36880898 -0.07530985 -0.14631957 -0.100268796
000030 db f7 80 3e a0 1e d8 bc 79 68 c2 3c 9b 2b 29 bc
       0.251891 -0.02638179 0.023731457 -0.010325338
000040 d1 ff a1 bd c3 52 82 3d b4 d4 73 be 89 66 06 be
       -0.07910121 0.06363442 -0.23811609 -0.13125052
000050 11 e6 00 be 03 e2 1d bf 4b f5 11 bd ba 7a 0c be
       -0.12587763 -0.6167299 -0.03563432 -0.13718691
000060 d4 79 9e bd 8d 5f 81 3e 1f d1 14 be 0b ad 73 3e
       -0.077380806 0.25268212 -0.14532898 0.2379648
000070 70 1d fe 3d 2c 14 bb bc 86 1f 75 3d 96 80 71 bd
       0.124079585 -0.022836767 0.059844516 -0.05896052
000080 b9 01 cb 3d a4 65 0f 3c dc c8 cd 3e 99 72 0c be
       0.09912438 0.00875226 0.40192306 -0.1371559
000090 18 a8 65 bd 74 99 51 be 98 8b e8 3d 63 f3 45 3d
       -0.05606851 -0.20468694 0.113547504 0.048327815
0000a0 09 3e 0f bf 59 ce 40 3e 3a 53 01 3e f2 45 31 3e
       -0.55954033 0.18828715 0.12629405 0.17311838
0000b0 51 98 60 be 5a 45 22 be 74 2f 03 bd bc ff 62 be
       -0.21933104 -0.15846768 -0.032027677 -0.22167867
0000c0 e6 98 2b 3d ae b6 d0 bd 25 8d 84 be b1 cb 19 3e
       0.041893862 -0.101910934 -0.25888935 0.15019108
0000d0 ef 7d 08 be 27 b8 fb bd d2 6e 92 3d 7e a2 54 be
       -0.1332929 -0.12290984 0.071500435 -0.20765111
0000e0 61 7c 29 3d 36 2c d7 bc d2 54 07 bf ae bb 0d 3f
       0.041378383 -0.026266199 -0.528638 0.553645
0000f0 86 4d 6e be c1 ed c2 3d 35 cd ba bc 8e 3e 67 3e
       -0.2327176 0.09518004 -0.022802928 0.22582456
000100 4f 08 9d bc c3 55 1d 3e 30 97 7d 3b 60 b6 2e bd
       -0.019169 0.15364747 0.003869485 -0.042654395
000110 97 6f 00 bc 14 43 7a 3d 30 18 3d 3e c5 bc cc 3d
       -0.007839105 0.061099127 0.18466258 0.099969424
000120 d7 43 b4 bd 38 ba f5 3d 2e 18 0a bd ae 05 72 3d
       -0.08802002 0.11998409 -0.033714466 0.059087448
000130 e0 16 11 bc 7c 74 4d 3e 94 44 49 bd 17 a3 68 3d
       -0.0088555515 0.20063967 -0.049137667 0.05679616
000140 56 e7 c6 bd f3 95 8b 3d b8 35 c4 bd 30 6a 2a be
       -0.097120926 0.0681571 -0.095805585 -0.1664207
000150 b6 68 24 3b ac 84 96 be b4 7f 53 3d 20 f7 81 bd
       0.0025086827 -0.29398096 0.05163546 -0.063459635
000160 f7 d3 97 3d ba db f9 3d 87 2a d5 bd 15 2f 01 3e
       0.07413476 0.12200113 -0.10408502 0.12615617
000170 9a 77 42 3d f9 53 af bd 22 bb 70 3d 36 82 62 bd
       0.047477342 -0.085609384 0.058772214 -0.05529996
000180 09 9a be 3d 22 7d 72 3d 8d 68 6f 3d 17 61 a8 be
       0.093067236 0.059201367 0.058449317 -0.32886574
000190 9a 32 3f be a8 e5 41 bd a8 b3 a6 be 96 00 d3 bd
       -0.18671647 -0.047338158 -0.32558942 -0.10302846
0001a0 65 d1 8c 3c 6b 6f 5a be 53 00 30 be bb 00 b9 3c
       0.01718969 -0.21331565 -0.17187624 0.022583356
0001b0 92 49 f6 bd e4 aa 40 be be 6e 7f 3e 23 d6 87 be
       -0.12025751 -0.1881519 0.24944589 -0.2653056
0001c0 61 ef 89 bd c8 a2 9a be 16 27 d4 3e 70 3a 37 be
       -0.06735111 -0.30202317 0.4143607 -0.17893386
0001d0 23 02 af be a4 eb 5d be 4f 23 88 bd 0d 67 4f be
       -0.34181318 -0.21671921 -0.066473596 -0.20254155
0001e0 e9 a2 d8 3d 5a 44 26 bc d4 0d 87 be 9d db ad bd
       0.10577948 -0.010148132 -0.26377738 -0.084891535
0001f0 ac 65 5c be 25 40 46 bd 67 e9 33 3e 88 f4 e5 3d
       -0.2152316 -0.048401017 0.17569505 0.11228281
000200 7e 97 b6 bd a2 1d 06 3e 70 f4 eb 3d dc 63 fb 3d
       -0.089156136 0.13097242 0.11521232 0.12274906
000210 bb 7a f2 ba d1 ef 87 be 79 cc 7e be b8 b4 c5 3d
       -0.0018499711 -0.26550153 -0.24882688 0.0965361
000220 bb ab 87 3e 9e 48 a8 bd 1e cc ac be 9d 10 e9 bd
       0.26498207 -0.08216976 -0.3374948 -0.11380122
000230 5f ea 59 be 13 bc 24 bd 78 f4 3e be da f8 2a bd
       -0.21280812 -0.040218424 -0.18647945 -0.04174123
000240 11 cd 09 3e 06 3a 59 39 52 e8 27 bf 08 47 df 3d
       0.13457133 0.00020716348 -0.6558887 0.1090222
000250 cc 60 a5 be e7 8b 4c be 42 06 22 3d d1 e4 6d be
       -0.32300413 -0.19975244 0.03955675 -0.23231818
000260 ec 73 44 3c 8e d7 78 3d 7f a9 27 be 07 d3 0e 3e
       0.011990529 0.060752444 -0.16373251 0.13947688
000270 37 35 90 3e 47 8c 8b 3e 01 5d e0 be f4 99 89 3e
       0.281656 0.2725546 -0.43820956 0.2687527
000280 8e 5e eb 3d 63 b5 97 bb 30 45 ec 3c e1 30 c5 3d
       0.11492644 -0.0046297773 0.028841585 0.096284635
000290 d3 3c 01 be d7 87 06 be 3f 6d 97 3e 74 65 e7 3d
       -0.12620859 -0.13137756 0.29575536 0.112986475
0002a0 b0 68 0d 3d 81 ce 1a 3d f4 70 14 3e 51 f5 9b bd
       0.034523666 0.037794594 0.14496213 -0.0761515
0002b0 d0 28 49 3d 15 85 22 3e e8 f7 54 3e 96 8d b1 bd
       0.049111187 0.1587108 0.20797694 -0.086695835
0002c0 c7 a6 8e bc 18 cf 99 3d f2 9b 9b 3a 6a c1 f2 3d
       -0.01741351 0.07510203 0.0011872037 0.11853297
0002d0 8f 7b 10 be 39 96 b8 be 2b 06 05 3d 89 6e a4 bd
       -0.14109634 -0.3605211 0.032476585 -0.080288954
0002e0 41 4c 6c be 3c da 1e 3e 2c 65 cb bd eb fe e5 bd
       -0.23075964 0.15512937 -0.099314064 -0.11230262
0002f0 93 ce 0d bc 83 76 8c 3d 4c 81 69 bd b1 3e ab 3e
       -0.008655208 0.06858542 -0.057008073 0.33446267
000300 e4 cf e4 bd e0 9c b5 be b5 d1 28 3e b5 b3 b7 bc
       -0.111724645 -0.3547125 0.16486247 -0.022424558
000310 9d d1 4b be bd 4a 94 39 0f db 95 be 65 03 34 3e
       -0.1990418 0.00028284444 -0.2926869 0.1757942
000320 51 b1 2c bd bb 50 98 3c 42 f4 8c 3d cd 5a 18 bd
       -0.04216129 0.018593183 0.06882526 -0.03719597
000330 22 60 b8 bd bc dc 4d 3d 4f ad 5d bd 51 0d 80 3d
       -0.09002711 0.050259337 -0.054120358 0.0625254
000340 27 3b 8d be 1e 50 06 3e 95 0c 32 be 17 37 70 be
       -0.27584192 0.131165 -0.17387612 -0.23458515
000350 7a 42 73 3c 7c e1 68 be c4 30 63 bd ce 41 56 be
       0.014847392 -0.22742265 -0.05546643 -0.2092354
000360 a9 a7 02 3e 57 76 47 3e a3 72 7b be 4e ef 8e 3e
       0.1275927 0.19478737 -0.24555449 0.2791695
000370 4b 57 45 3d 26 b9 56 bd 8b 26 e1 3c 94 f0 97 3c
       0.048178952 -0.052422665 0.027484199 0.018547334
000380 77 e7 e3 3d cf 05 97 bd 3c c1 c2 bb bf eb 3e 3e
       0.11128133 -0.07374155 -0.0059434455 0.18644617
000390 17 cb 24 be b4 ff c3 3d 5d 7d 49 3e 62 60 23 be
       -0.16093098 0.09570256 0.19676729 -0.15954736
0003a0 e9 39 94 be e7 dd c9 3d a5 ae c2 3e cb f3 91 3d
       -0.28950432 0.09856778 0.38023868 0.07126578
0003b0 49 e6 b2 3c 40 ac 25 3e 2b 50 d6 bc 72 2f 25 be
       0.021838324 0.1617899 -0.026161274 -0.1613138
0003c0 92 19 10 be 64 29 16 3e 84 bd 08 be 88 88 bf 3d
       -0.14072254 0.14664227 -0.13353544 0.09352213
0003d0 9a d5 99 3d c4 50 ad be 59 22 b2 ba 84 ff 83 be
       0.075114444 -0.33850682 -0.0013590559 -0.2578088
0003e0 5f f1 6b 3d b2 56 08 3e 69 a1 ec bc 9a e5 34 bc
       0.057603236 0.13314322 -0.02888556 -0.011041069
0003f0 a9 8f 25 3e 81 f5 db bd 11 24 c8 bd 9e bc 40 3d
       0.16168083 -0.107401855 -0.09772504 0.04705488

context_transformer_0/ffn_layer_1/intermediate_dense/einsum/Einsum;context_transformer_0/ffn_layer_1/intermediate_dense/Relu;context_transformer_0/ffn_layer_1/intermediate_dense/add f4 [32]
000000 03 7d 3c be ed 1e d6 bd 35 17 77 be 35 60 23 3d
       -0.18407063 -0.104551174 -0.24129947 0.039886672
000010 50 b1 54 be 4a ac 35 3e bd c7 d5 bd 6d 40 29 3d
       -0.20770764 0.17741504 -0.10438488 0.041321207
000020 1d ae 37 bc 03 fd 78 be a0 06 5c be 8c 95 4e be
       -0.011210945 -0.24315266 -0.21486902 -0.20174235
000030 46 6f 4b be 59 2a 1b be 4b c7 c1 bd e1 53 1f be
       -0.19866666 -0.15152873 -0.0946184 -0.15559341
000040 c5 29 37 bc d2 82 ff 3d c4 78 d0 bd ae dd 0d bf
       -0.011179392 0.12476124 -0.10179284 -0.5541638
000050 b2 50 db 3d eb 36 84 3e fb f5 3c 3c f8 7e a8 bc
       0.10708751 0.2582315 0.011533256 -0.020568356
000060 3d f0 c5 bd 5d a7 bd bd 71 62 b0 bd 74 81 0c be
       -0.096649624 -0.09260438 -0.08612526 -0.13721257
000070 8c 16 0c be 02 d9 d2 3c 7c 49 b2 bd 4a 59 7d bc
       -0.13680476 0.025738243 -0.08705422 -0.015463183

context_transformer_0/ffn_layer_0/norm/mul;context_transformer_0/ffn_layer_0/norm/add;context_transformer_0/ffn_layer_1/intermediate_dense/einsum/Einsum;context_transformer_0/ffn_layer_1/intermediate_dense/Relu;context_transformer_0/ffn_layer_1/intermediate_dense/add f4 [32, 32]
000000 d0 53 20 3d 87 1a 30 3e 48 7c 00 3e 4e 25 9d be
       0.03914243 0.1719762 0.1254741 -0.30692524
000010 f2 b9 ca bd 44 67 fb bd 7b 79 c4 3e 23 ec 0c bd
       -0.098987475 -0.12275556 0.38373932 -0.034404885
000020 96 c3 21 3d 1d 23 56 be 25 e2 58 be f2 d4 02 be
       0.039493166 -0.20911832 -0.21180017 -0.12776545
000030 bb 97 20 bf e6 e9 1b 3e de 2d 2f 3e 3c 16 a2 3d
       -0.6273152 0.15225944 0.1710734 0.07914397
000040 d9 ee c4 3d df 54 c2 bb 0b 20 ca 3e 08 0c 82 bd
       0.09615869 -0.0059305276 0.39477572 -0.06349951
000050 2b e8 d7 bd fe c8 cb bd 79 9c e3 bd 3a d7 81 bd
       -0.105423294 -0.099504456 -0.11113829 -0.06339879
000060 92 d2 89 3e f5 17 2a be 13 c6 1a 3e 6a d1 21 3e
       0.26918465 -0.16610701 0.15114622 0.15802541
000070 d2 9d 5c 3e db 8a a4 bd ce c3 5f bd 6f 92 86 3e
       0.21544579 -0.08034297 -0.054630093 0.26283595
000080 e1 c9 9b be 6b 43 8b 3e b3 5f c3 bd 41 34 df 3c
       -0.3042746 0.27199873 -0.095397376 0.027246596
000090 2e ce e0 3c b7 68 2d 3d e7 3d e2 3d 19 09 c6 bd
       0.027442064 0.042336192 0.11046963 -0.09669704
0000a0 18 5b 23 3e 96 34 5d be 81 9b e8 bd ac 04 f3 bc
       0.15952718 -0.21602091 -0.11357785 -0.029665314
0000b0 fb db c7 be 0e 02 ab bd cb 05 f4 3d 57 c6 4a 3e
       -0.3903502 -0.08350001 0.119151674 0.19802223
0000c0 89 fa bb 3d 6a 7e 53 be a4 66 99 bc 3e 49 2c be
       0.09178645 -0.20653692 -0.0187257 -0.16824815
0000d0 59 4c 58 3d 05 b0 a0 bd 57 03 a4 3d 9a bd 48 3e
       0.052807186 -0.07846073 0.080084495 0.19603577
0000e0 61 16 9b 3e cb c3 44 be 7e d3 1e bd 62 c3 74 bd
       0.3029051 -0.19215314 -0.038775913 -0.059756644
0000f0 8d d0 08 bd 59 a3 fc bd a6 26 c6 bd ff 39 66 3e
       -0.033402015 -0.123358436 -0.0967534 0.22483061
000100 23 d9 04 3e 65 2e 59 bd ca 05 0e 3f dd 27 9c be
       0.12973456 -0.05302276 0.55477583 -0.30499163
000110 7b 81 91 3d 1d 23 b4 bd f1 7b 06 bf 3d 4c c2 be
       0.071047746 -0.0879576 -0.5253287 -0.3794879
000120 26 de 01 bc d4 9b 83 be 33 7c 9a be 7e c9 39 bd
       -0.0079264995 -0.25704825 -0.3017288 -0.045358174
000130 4b 46 7f bd d1 c1 45 3c ba 6b 5b 3c 37 2c bc bd
       -0.062322896 0.012070135 0.013392383 -0.09188121
000140 6a 66 61 3c 96 00 9c 3c b0 31 b5 3d b5 67 16 be
       0.013757328 0.019043248 0.08847368 -0.14687999
000150 c0 fd a9 bd e6 cd b7 bd 24 c3 9a bc 45 60 12 be
       -0.08300352 -0.08974819 -0.018891878 -0.14294536
000160 c7 fe 27 3e 43 a4 19 bd e6 b8 a2 3d 77 d6 e3 3e
       0.16405784 -0.037510168 0.07945423 0.4449956
000170 1c bd 0f be f5 59 55 bd 5e ab 18 bd 69 75 a6 3c
       -0.14036983 -0.052087743 -0.037272803 0.020319657
000180 97 8e 43 be 9b d3 72 3e 32 5a 8b 3e dd c8 99 3e
       -0.19097362 0.23713534 0.2721725 0.3003606
000190 f8 47 31 bd 6a 4c 33 bb 73 2c 20 3d d1 4f 2b 3c
       -0.043281525 -0.0027358779 0.03910489 0.010456041
0001a0 83 57 85 be 5f de bf 3d d9 1c a7 3e fc 79 e4 bc
       -0.2604333 0.09368586 0.32639197 -0.027890198
0001b0 e2 44 e3 bd 65 04 a6 3e 93 16 16 3e 42 4a d1 3e
       -0.11097123 0.32425228 0.14657049 0.40876967
0001c0 74 c1 96 3d bd b7 0a be ac 7e fc bc e5 b0 83 3c
       0.07361117 -0.13546653 -0.03082212 0.01607556
0001d0 64 28 54 bd 35 7f 8e bd 95 b4 8c 3e 9c c3 e8 be
       -0.051796332 -0.069578566 0.27481523 -0.45461738
0001e0 cc be 81 3e 70 79 88 be 3e 8a 13 be fd ac d5 be
       0.2534088 -0.2665515 -0.14408204 -0.41733542
0001f0 1c e9 c3 bd 10 34 14 3e ac 1f db bd 98 4b 4d 3e
       -0.095659465 0.14472985 -0.106994 0.20048368
000200 5d bf f6 bd 08 3a fb bc fb 37 b0 3d b0 dd 70 3e
       -0.120482184 -0.03066732 0.086044274 0.23522067
000210 c3 9e 37 3e 4d c7 1a be c8 e0 c2 3e 1e 2b 95 bc
       0.17931657 -0.1511509 0.3806212 -0.018209036
000220 0a fc f6 3d 61 f5 37 3e 23 a3 6c be 5c 1f 0c 3e
       0.120597914 0.17964698 -0.23109107 0.13683838
000230 f7 a1 93 3e fb e5 5c be f6 fa 94 bd 82 5b 7f 3d
       0.28834507 -0.21572106 -0.072744295 0.062343128
000240 ac 4f a2 bd 0a 70 46 3d eb d2 30 bd c6 13 18 3e
       -0.079253525 0.048446693 -0.043169897 0.14851293
000250 7d 85 5d bd ed 06 e8 bd 24 c6 ae 3d 4a 0d c8 3d
       -0.054082382 -0.11329446 0.08533886 0.0976816
000260 9a 45 55 bd 97 c2 79 bc 2d 70 72 be dc 80 31 be
       -0.05206833 -0.015244148 -0.23675604 -0.17334312
000270 a4 70 c3 be d1 8a cd ba 9b aa f2 bd 8e 37 d1 be
       -0.38171875 -0.0015681629 -0.11848947 -0.40862697
000280 57 1a 67 3d 1b c8 14 be 0c e6 be bc fe 18 be 3c
       0.056421604 -0.14529459 -0.023303054 0.023205277
000290 a5 93 e4 3c 16 e5 94 be c7 8a fe bd c9 56 a1 bd
       0.027902434 -0.2908103 -0.124288134 -0.07877881
0002a0 13 15 53 3d b9 b1 c8 be f2 24 cb bd c3 dc 88 be
       0.05153377 -0.39198092 -0.09919156 -0.26730928
0002b0 79 c0 e8 bd 73 91 9c be a3 cc bb 3d 39 cd c3 bc
       -0.11364836 -0.3057972 0.09169891 -0.023901569
0002c0 de 2d dc 3d 5f 87 3a be b6 f7 d3 bd 76 e9 74 be
       0.10750936 -0.18215702 -0.103499815 -0.23917183
0002d0 8f fe 09 bf e2 39 44 be 8f 6c 9a 3d c2 4e b6 bd
       -0.5390405 -0.19162706 0.07540237 -0.089017406
0002e0 28 f4 1e bd 29 90 bd 3b 23 92 1c be 0a 67 be 3e
       -0.038807064 0.0057850075 -0.15290122 0.37187988
0002f0 25 1f 1e 3e 48 60 93 3e 96 ad 99 be 4f 64 55 bc
       0.15441568 0.28784394 -0.30015248 -0.013024404
000300 00 d1 a1 bd 3f e6 ae bd 7e 13 d2 3d 9d 22 c6 bc
       -0.07901192 -0.0854001 0.10257624 -0.024186427
000310 6c df c4 3d 36 99 40 3c c6 ff ab bd 1a 3e 84 bc
       0.09612927 0.011755278 -0.08398394 -0.016142894
000320 1e e7 b1 be f7 d8 9f 3d ee 4d 8f bc b7 dc e1 3d
       -0.3474664 0.07805055 -0.017493214 0.11028426
000330 23 bb 98 bd a0 bf 96 bd 0f 31 ac bd a2 44 f9 3b
       -0.074575685 -0.07360768 -0.08407795 0.0076070586
000340 ea a5 8e bc 18 e8 93 bd 4a d8 3b be 5f 5f 91 bd
       -0.017413098 -0.07222003 -0.18344226 -0.07098269
000350 60 c2 4d bd 7c 77 3b bd f8 73 df bb 1b 43 15 bc
       -0.0502342 -0.045768246 -0.0068192445 -0.0091102375
000360 91 eb 04 bd a2 b4 0c bd f4 25 4f bd 30 09 ed 3d
       -0.032451216 -0.034351952 -0.050573304 0.11574018
000370 62 ff 29 bd 37 c9 44 3d 2a 79 65 bb 52 f2 f0 bd
       -0.041503318 0.048043456 -0.0035014846 -0.11764969
000380 7b 9c d9 bc c8 cd 6b 3d fe 0d 7e 3e a3 93 08 3f
       -0.026563874 0.057569295 0.24810025 0.53350276
000390 d3 69 15 3e a4 59 7d 3d a4 d7 72 be 29 f6 72 be
       0.1459115 0.061853066 -0.23715073 -0.23726715
0003a0 e9 af 52 3c cf 7f 96 be d0 ae de 3d 96 0f 11 bd
       0.012859323 -0.29394385 0.108731866 -0.035415255
0003b0 23 72 dc bb 01 62 8e 3e 33 c3 70 bc ef 62 1b 3e
       -0.0067274733 0.27809146 -0.014694977 0.15174459
0003c0 9f f1 85 3d 8a 19 40 3d cd c4 41 be e5 ce 95 3d
       0.06540226 0.046899356 -0.1892273 0.073148526
0003d0 09 b5 ba bc 5b 30 38 be 9a fa b5 3e 3a dd 62 bc
       -0.022791402 -0.17987196 0.35542756 -0.01384669
0003e0 bc 51 df be 3c bc 65 bd 04 cc 0f be 50 b7 44 bd
       -0.43617046 -0.056087717 -0.1404267 -0.048026383
0003f0 f4 4c 7e 3d 60 16 f9 3c 85 f0 97 bd 77 fc e3 3e
       0.062085107 0.030406177 -0.07418922 0.44528553

context_transformer_0/ffn_layer_2/intermediate_dense/einsum/Einsum;context_transformer_0/ffn_layer_2/intermediate_dense/Relu;context_transformer_0/ffn_layer_2/intermediate_dense/add f4 [32]
000000 a2 68 f7 bd 47 b7 8d be eb 13 3e be 69 aa 4e 3d
       -0.12080504 -0.27678892 -0.18562286 0.050455485
000010 a6 de 66 bd 86 80 49 be 34 5b 98 bd fd 60 d9 bd
       -0.056364678 -0.19677934 -0.074392706 -0.10614202
000020 75 25 f7 bd c0 56 64 be 8e 23 a3 be bf c9 d3 bd
       -0.12067691 -0.22298717 -0.31863064 -0.103412144
000030 78 6d 67 be 61 41 87 3d db a4 62 3e a7 17 d7 bd
       -0.22600353 0.06604267 0.221332 -0.10502558
000040 c1 a4 28 bd de 27 8f bd 5d 2e bc 3d 9b d2 90 be
       -0.041172747 -0.06990026 0.091885306 -0.2828568
000050 31 ff 0c 3d 88 99 5b be 1f 85 4c bd 0b 0d 41 3d
       0.034423057 -0.21445286 -0.04993164 0.04713158
000060 e7 db ec 3a b9 96 8f bd 26 cc a6 be c7 07 92 be
       0.0018070907 -0.0701117 -0.32577628 -0.2852156
000070 bb 89 c6 3b 0a 2a c2 be 68 52 f3 bd d6 e2 55 be
       0.006058899 -0.37922698 -0.11880952 -0.20887312
